logs/rsl_rl/booster_t1_velocity/2026-02-13_00-46-44/2026-02-13_00-46-44.onnx (onnx, 839023 bytes, 8 tensors)

actor.0.weight f4 [512, 81]
0	0x3db3e030	0.08782995
1	0x3db9602a	0.09051545
2	0xbcd4779b	-0.025935939
3	0x3dbdc71a	0.09266491
4	0xbcbb3718	-0.02285342
5	0x3cde937c	0.027169935
6	0xbd69fbd4	-0.057124928
7	0x3d8d11a9	0.06888134
8	0x3dbef922	0.09324862
9	0xbd9e5cc0	-0.077325344
10	0x3dba9d76	0.091120645
11	0x3c888f07	0.016669763
12	0x3d9d0bcf	0.07668268
13	0x3cbc9ee9	0.023024993
14	0x3d3a320e	0.045457892
15	0xbcb02735	-0.02150307
16	0x3dad7d8a	0.0847121
17	0x3cbd31ff	0.023095129
18	0xbd475482	-0.048664577
19	0x3ce52a3a	0.027974237
20	0xbd5657cb	-0.05232982
21	0xbb9d144f	-0.0047936807
22	0xbd3201f3	-0.04345889
23	0x3d9e3885	0.07725624
24	0xbdb432f2	-0.087987795
25	0xbd5987ed	-0.053108145
26	0xbd0d2884	-0.034462467
27	0xbd89cc79	-0.06728453
28	0x3c0ffc0b	0.008788119
29	0xbde28409	-0.1106034
30	0x3dd7413c	0.10510489
31	0xbdbaee4e	-0.09127484
32	0x3db595c0	0.08866453
33	0x3c2a94ed	0.010411483
34	0xbd2d2ec5	-0.04228093
35	0x3d8fd5ce	0.07023202
36	0x3c9ac1fa	0.018891323
37	0x3db82b43	0.089926265
38	0x3c561dd4	0.013068635
39	0xbd139176	-0.036027394
40	0x3d0a5a3c	0.03377746
41	0xbd05ba44	-0.03264834
42	0x3d37290c	0.04471688
43	0x3dcb65f8	0.09931558
44	0x3d8bb4b4	0.06821576
45	0xbd444615	-0.047918398
46	0x3d8848f9	0.066545434
47	0x3cd8ba8b	0.026456138
48	0x3d615372	0.05501122
49	0xbd8ad4cc	-0.06778869
50	0xbddcb309	-0.10776336
51	0xbd315e00	-0.043302536
52	0xbdaafb4d	-0.08348713
53	0x3dbfed44	0.09371427
54	0x3d115e11	0.0354901
55	0x3d4cffd4	0.050048664
56	0x3cc38163	0.023865407
57	0xbc0a7d52	-0.00845273
58	0x3da77fee	0.081786975
59	0xbd9cfc65	-0.07665328
60	0x3ab2dea4	0.0013646674
61	0xbd905fa0	-0.07049489
62	0x3d125a16	0.035730444
63	0xbd184344	-0.037173524
64	0x3d09dffb	0.03366087
65	0xbca62ce0	-0.02028507
66	0x3dbed6c2	0.093183056
67	0xbd781ef1	-0.060576383
68	0xbd823736	-0.06358187
69	0xbd8a876b	-0.0676411
70	0x3dd07316	0.10178201
71	0x3d194f06	0.03742888
72	0x3de7c138	0.113161504
73	0xbdb0d586	-0.08634476
74	0xbddd7ca9	-0.10814793
75	0xbda9fb89	-0.0829993
76	0xbd888485	-0.06665901
77	0x3d42c8d1	0.047554795
78	0x3d1a8fd2	0.037734814
79	0x3dc25dbb	0.09490534
80	0xbd825794	-0.063643605
81	0xbd9e0c84	-0.07717231
82	0x3d6f7b96	0.05846747
83	0xbd30c6ea	-0.04315845
84	0x3d765946	0.06014373
85	0xbc85b1c7	-0.016320122
86	0x3d79f84c	0.06102781
87	0xbda66849	-0.081253596
88	0xbd4fb3de	-0.050708644
89	0x3cfd4a43	0.0309192
90	0x3ca192f2	0.01972339
91	0xbce886b8	-0.028384551
92	0x3d732876	0.05936476
93	0x3d99c38e	0.07508002
94	0xbda270c0	-0.079316616
95	0xbd65976a	-0.056052603
96	0x3dc87af4	0.097890764
97	0xbd0fd15b	-0.035111766
98	0xbd2e43e4	-0.042545214
99	0xbddfa282	-0.10919668
100	0xbd72abbc	-0.05924581
101	0x3cdf1d36	0.027235609
102	0xbc36d9fb	-0.011160369
103	0xbda2f4b3	-0.07956829
104	0x3b455b6f	0.0030114313
105	0xbd952603	-0.07282641
106	0xbdc54ba7	-0.0963357
107	0xbd7ed7e4	-0.062217608
108	0xbdcd1808	-0.10014349
109	0xbd858b31	-0.06520689
110	0x3de7face	0.11327134
111	0x3c97ea89	0.018544452
112	0x3d1bfc54	0.038082436
113	0xbdd64503	-0.10462382
114	0xbd91ed1d	-0.07125304
115	0xbd2f05ab	-0.042730015
116	0x3c636255	0.013878425
117	0xbdbdbae1	-0.0926416
118	0xbd464632	-0.048406787
119	0xbd8bd380	-0.0682745
120	0x39e38540	0.00043396093
121	0xbd10cd9d	-0.035352338
122	0xbc2d0bf5	-0.010561933
123	0xbd987d85	-0.07445816
124	0xbd9c8bb4	-0.07643834
125	0xbd8517fb	-0.064987145
126	0xbd06d653	-0.03291924
127	0xbdb2f03e	-0.08737229
128	0x3dc87886	0.09788613
129	0xbc854391	-0.01626757
130	0x3db67e67	0.08910828
131	0x3d09ffb2	0.033691116
132	0xbdb9150a	-0.09037216
133	0x3d9bb2ba	0.07602449
134	0xbcebd714	-0.02878908
135	0xbd259e79	-0.040434334
136	0xbdc129cb	-0.094317995
137	0xbddde771	-0.108351596
138	0x3cd31810	0.02576831
139	0xbceef701	-0.029170515
140	0x3d3cb1a6	0.046067856
141	0xbdc08638	-0.094006
142	0x3da88d9f	0.08230137
143	0xbdadf3f3	-0.08493795
144	0xbc7b6ea5	-0.015346204
145	0x3ca87d4b	0.020567557
146	0x3d61ff57	0.05517515
147	0x3dad3023	0.08456447
148	0x3dd7f1f0	0.10544193
149	0xbda5f9ff	-0.081043236
150	0x3cd93049	0.026512282
151	0xbd4bd39f	-0.049762364
152	0xbc2a0299	-0.010376596
153	0xbdae4477	-0.085091524
154	0x3dc4ed02	0.09615518
155	0xbd9be3c4	-0.07611802
156	0x3d622e70	0.055220068
157	0x3d2f8703	0.042853367
158	0x3d0c7b26	0.03429713
159	0xbd69dac5	-0.0570934
160	0x3dd14585	0.10218338
161	0x3cd122b8	0.02552925
162	0x3c4e6851	0.012598113
163	0xbdc90ea2	-0.09817244
164	0x3d3c4c22	0.045971043
165	0xbc4c014d	-0.012451482
166	0xbd4263a3	-0.047458302
167	0x3dcfd057	0.101471595
168	0x3cc08282	0.023499731
169	0xbd730d69	-0.05933896
170	0xbd76ca79	-0.060251687
171	0xb9e209c6	-0.0004311336
172	0x3d6e0ce1	0.05811775
173	0xbcdd7165	-0.02703161
174	0xbd8585e7	-0.065196805
175	0xbd1460f2	-0.036225267
176	0xbdb787a2	-0.08961417
177	0x3d22b008	0.039718658
178	0x3daad069	0.08340532
179	0xbdd0239b	-0.10163041
180	0x3cd8431f	0.026399193
181	0x3d6e68d2	0.058205433
182	0x3cbae43e	0.022813912
183	0xbcf3d631	-0.02976522
184	0x3d69253d	0.05692028
185	0x3d61cdb7	0.055127826
186	0x3d1d5f68	0.038421065
187	0xbc876e49	-0.01653208
188	0xbd116c8a	-0.0355039
189	0x3c67906b	0.014133553
190	0xbca5f096	-0.020256322
191	0xbcf17b52	-0.029477749
192	0x3d89b11f	0.06723236
193	0x3dca5021	0.098785646
194	0xbbafb77b	-0.0053624487
195	0xbccad406	-0.024759304
196	0xbb07c37f	-0.002071589
197	0xbb78073c	-0.003784611
198	0x3cca426c	0.024689876
199	0x3cdbae7a	0.026816595
200	0xbdcfd26d	-0.101475574
201	0xbd2eef19	-0.04270849
202	0x3dbd2c27	0.09236937
203	0x3d17ebdc	0.037090167
204	0xbbd0d33a	-0.0063728364
205	0xbd88a61b	-0.06672307
206	0xbd9013a7	-0.070349984
207	0xbdc798f9	-0.09745974
208	0xbd0d4219	-0.034486864
209	0x3d2362e8	0.039889246
210	0x3d92d330	0.07169187
211	0x3d3728ea	0.044716753
212	0xbdca75a0	-0.098857164
213	0xbd81d4bc	-0.06339404
214	0xbc646760	-0.013940662
215	0x3dd982ce	0.10620652
216	0x3c922786	0.017841112
217	0xbcb01e80	-0.021498919
218	0x3d22263f	0.039587256
219	0xbd2e7a48	-0.042597085
220	0xbd93a4be	-0.072091565
221	0x3da6fdd5	0.08153883
222	0xbd789353	-0.060687374
223	0xbcb27a59	-0.021786856
224	0xbde6691d	-0.112505175
225	0x3d92eca8	0.07174045
226	0x3dab3fd4	0.083617836
227	0x3d2f1c90	0.04275185
228	0xbda43bdf	-0.08019232
229	0xbde33751	-0.11094535
230	0xbdad2a7f	-0.08455371
231	0x3dab1661	0.08353878
232	0x3d5b0855	0.053474743
233	0x3dc420c7	0.09576564
234	0x3d5b34d4	0.053517178
235	0x3d0b2488	0.033970386
236	0x3a9439e3	0.0011308755
237	0xbda8ed21	-0.08248354
238	0xbdba5bad	-0.09099517
239	0xbdd2af5d	-0.10287354
240	0x3d1bce81	0.038038734
241	0xbd615d4d	-0.05502062
242	0xbd092815	-0.03348549
243	0xbd81cb1e	-0.0633757
244	0xbc3e2eb7	-0.011607817
245	0xbd8dc87f	-0.06923007
246	0xbd971ada	-0.073781684
247	0x3d225051	0.039627377
248	0xbd0e4674	-0.034735158
249	0x3d94189e	0.07231258
250	0xbd064f36	-0.032790385
251	0xbda9009b	-0.082520686
252	0xbc93019e	-0.017945107
253	0xbd63b168	-0.05558911
254	0xbd0762d0	-0.03305322
255	0xbdd5cfab	-0.1044

actor.0.bias f4 [512]
0	0x3daaab52	0.08333458
1	0x3d805708	0.062666
2	0xbc8a4bb9	-0.01688181
3	0x3cf2338e	0.029565599
4	0x3d350962	0.0441984
5	0xbd822065	-0.06353835
6	0x3c3da151	0.011574105
7	0x3daa239e	0.08307575
8	0xbdd37c7f	-0.1032648
9	0x3d9fc21d	0.07800696
10	0xbd363432	-0.04448337
11	0x3dda43d2	0.10657467
12	0xbaafc735	-0.0013410809
13	0x3b5564cf	0.0032561307
14	0x3dc8c367	0.09802895
15	0x3d56155d	0.052266467
16	0x3daa37b7	0.08311408
17	0x3d540cba	0.05176995
18	0x3c91560b	0.017741224
19	0xbbe1b0d9	-0.006887537
20	0x3d944527	0.07239752
21	0xbd24ec11	-0.040264193
22	0x3d1e8e9f	0.038710233
23	0x3d9362cb	0.07196578
24	0xbd6451ca	-0.055742063
25	0x3d1012c0	0.03517413
26	0x3bb03980	0.0053779483
27	0xbdde3aa1	-0.10851026
28	0xbd7fb11b	-0.06242476
29	0xbd841efc	-0.06451222
30	0xbd1d7a96	-0.038446985
31	0x3dc82178	0.09772009
32	0x3d86fffd	0.06591795
33	0xbdb841bd	-0.089969136
34	0xbda57d07	-0.08080488
35	0xbc5a2ed0	-0.013316825
36	0xbafa245d	-0.0019084323
37	0xbd4ec2bc	-0.050478682
38	0x3bf3446d	0.0074239285
39	0x3d5e0f15	0.054213602
40	0x3ce3a574	0.027788855
41	0xbda0bf98	-0.078490436
42	0xbd2b2318	-0.041781515
43	0x3d471796	0.048606478
44	0x3d2e3e2c	0.04253976
45	0xbc5512cf	-0.013004973
46	0xbd788c48	-0.060680658
47	0xbb9e1067	-0.0048237327
48	0x3bdeeb0a	0.006802921
49	0x3d1d1a47	0.03835514
50	0xbd6b7c30	-0.05749148
51	0xbda55fe4	-0.0807493
52	0xbd8084aa	-0.06275304
53	0xbc06f7ee	-0.008237822
54	0x3c20da68	0.009817697
55	0xbb4dfe52	-0.0031432104
56	0xbd863ab2	-0.06554164
57	0x3dabdc8b	0.083916746
58	0xbd51061c	-0.051031217
59	0x3bae989a	0.00532825
60	0xbc717608	-0.0147376135
61	0xbc5e63a4	-0.013573561
62	0xbd158819	-0.036506746
63	0xbc07e99c	-0.008295443
64	0xbcbc2951	-0.02296892
65	0x3dca3934	0.09874192
66	0xbdd74092	-0.10510363
67	0xbd6fb703	-0.058524143
68	0xbdc1abe4	-0.09456614
69	0x3c68e05d	0.014213649
70	0xbc64254d	-0.013924909
71	0x3d9ccfb0	0.07656801
72	0x3d6f4fb4	0.05842562
73	0x3c18430a	0.009293327
74	0x3cb7dae0	0.022443235
75	0x3dade733	0.084913634
76	0x3d471ccf	0.04861146
77	0x3d237f1a	0.039916135
78	0xbd905a66	-0.07048492
79	0xbdbaf2a0	-0.09128308
80	0x3d79eaf7	0.061015096
81	0xbd8a5bec	-0.06755814
82	0xbda2ea7a	-0.07954879
83	0xbd6b59f3	-0.05745883
84	0xbd8ca0f8	-0.0686664
85	0xbd20a4f0	-0.039219797
86	0x3db9a545	0.09064726
87	0xbd9cf916	-0.07664697
88	0x3db1e181	0.086855896
89	0x3d9d9ac0	0.07695532
90	0x3d5e5012	0.05427558
91	0x3ddbc76b	0.10731395
92	0xbd3c8058	-0.046020836
93	0xbd579783	-0.052634727
94	0xbd91ebed	-0.071250774
95	0x3d0f90c9	0.035050187
96	0xbd0bca0d	-0.034128238
97	0x3bb7cd5c	0.0056091975
98	0xbdb76598	-0.08954924
99	0x3dd5e40c	0.10443887
100	0x3b0bef5e	0.002135239
101	0xbc938f48	-0.018012658
102	0x3db689a7	0.08912974
103	0x3ddd6588	0.10810381
104	0xbdd91820	-0.106003046
105	0x3b70d172	0.0036745933
106	0xbdce1c9d	-0.10064051
107	0xbdb11fdc	-0.08648655
108	0x3c8c808a	0.017151136
109	0x3d2a42d5	0.041567642
110	0xbd58058e	-0.052739672
111	0x3d0d9c56	0.03457292
112	0x3d110902	0.03540898
113	0x3da20216	0.07910554
114	0x3d373df3	0.044736814
115	0x3d8d15c1	0.06888915
116	0x3c7cd32d	0.015431208
117	0xbde78bbd	-0.1130595
118	0xbd280dc0	-0.041028738
119	0xbc086cea	-0.008326748
120	0xbdbfdd1d	-0.09368346
121	0xbd9b6215	-0.07587067
122	0xbd97456c	-0.07386288
123	0x3ca33d4a	0.019926686
124	0x3cb80980	0.022465467
125	0xbd26e244	-0.040743127
126	0xbd5b6be3	-0.053569686
127	0x3d714e75	0.058912713
128	0xbc4640f9	-0.012100452
129	0x3d93a59f	0.07209324
130	0x3dc31f7f	0.09527492
131	0x3c01a4cd	0.007912827
132	0x3d894622	0.0670283
133	0xbdaaca26	-0.08339338
134	0xbd7c2aad	-0.061564136
135	0xbd35d7e8	-0.044395357
136	0x3d8c6548	0.06855255
137	0xbd90100f	-0.07034313
138	0x3d07265c	0.032995567
139	0x3cc53758	0.024074242
140	0xbcb1cc7d	-0.021703953
141	0xbda9c2b0	-0.08289087
142	0x3d7fcf92	0.062453814
143	0x3c75cbf7	0.015002242
144	0xbd0f0919	-0.034920786
145	0xbdc4564b	-0.095867716
146	0x3ca60bce	0.0202693
147	0xbc01ea43	-0.0079293875
148	0xbc96923e	-0.01838028
149	0xbb5efd51	-0.00340255
150	0xbdd5d24f	-0.10440504
151	0xbc97eda3	-0.018545931
152	0x3d36a471	0.044590417
153	0x3ac0fe2c	0.0014724187
154	0x3ccc58ee	0.024944749
155	0x3c96539a	0.018350411
156	0x3bad8236	0.0052950634
157	0x3dcae0ce	0.09906159
158	0x3c49d83a	0.012319619
159	0x3dd1cd65	0.10244254
160	0x3cce96d4	0.025218405
161	0x3cf7f26c	0.030266963
162	0xbd537640	-0.051626444
163	0x3d3961af	0.045259174
164	0x3d860c05	0.06545261
165	0x3db9e401	0.090766914
166	0x3d14edf6	0.03635975
167	0xbdaf9766	-0.08573799
168	0x3d88c142	0.06677486
169	0x3dd6717f	0.104708664
170	0x3d9929bc	0.07478663
171	0x3aeb697a	0.0017960512
172	0x3c127198	0.008938216
173	0x3dd93a3d	0.10606811
174	0x3dbdc616	0.092662975
175	0xbdceba15	-0.10094086
176	0xbc324f2a	-0.010883132
177	0xbda03405	-0.07822422
178	0xba170f64	-0.0005762486
179	0xbdb0d41e	-0.08634208
180	0xbbfcc86e	-0.007714323
181	0xbdd1938e	-0.10233222
182	0xbda1e520	-0.0790503
183	0xbab71cde	-0.0013970395
184	0x3d6352a2	0.055498727
185	0xbc819952	-0.01582018
186	0xbd0ff6e0	-0.035147548
187	0x3da9ea91	0.08296693
188	0x3c6aa3df	0.0143212965
189	0xbd7072a9	-0.0587031
190	0xbd33fe2e	-0.043943577
191	0x3d7bca41	0.06147218
192	0x3c8c559a	0.017130662
193	0x3b83eaab	0.0040257773
194	0x3c2dfa76	0.010618797
195	0xbd19a273	-0.03750844
196	0xbc7cba93	-0.015425342
197	0x3dc49064	0.09597853
198	0x3d913e1b	0.07091924
199	0x3ce5731b	0.028008988
200	0x3cdff814	0.027339973
201	0xbc00a858	-0.007852636
202	0xbdc887b3	-0.097915076
203	0xbd8df890	-0.06932175
204	0x3d273b85	0.040828247
205	0x3d174f00	0.036940575
206	0x3c5e76c2	0.013578119
207	0xbd74b633	-0.05974407
208	0x3d56ba1d	0.052423585
209	0x3dceed6e	0.1010388
210	0x3cecafe9	0.028892474
211	0x3d057ec2	0.03259159
212	0x3dd2d918	0.102953136
213	0x3b6a04f6	0.0035708523
214	0xbd813d8d	-0.06310568
215	0xbdca2ed6	-0.098722145
216	0xbd4827d3	-0.048866104
217	0xbc2600b9	-0.010132008
218	0x3d6d20e0	0.05789268
219	0xbd51a9ca	-0.051187314
220	0x3d0084eb	0.03137676
221	0x3d2c858b	0.042119544
222	0x39f8d312	0.00047459506
223	0xbda328d6	-0.07966773
224	0xbcf9b5cb	-0.030482193
225	0xbdd350e1	-0.10318161
226	0xbcb4871d	-0.022037083
227	0x3dc52d33	0.09627762
228	0xbb8d0263	-0.004303263
229	0x3cd38119	0.025818394
230	0xbca3c773	-0.019992566
231	0xbd371e62	-0.04470671
232	0xbc684228	-0.014175929
233	0x3dd0b8af	0.101914756
234	0xbd9e6416	-0.07733934
235	0x3c97db21	0.018537106
236	0xbd90cf3c	-0.07070777
237	0xbc1277de	-0.008939711
238	0xbbb92250	-0.0056498423
239	0xbd160ea4	-0.036635056
240	0x3dc21cac	0.09478125
241	0xbacbb5d7	-0.0015541863
242	0xbd1bc981	-0.038033966
243	0xbd32b7ab	-0.04363219
244	0x3d954967	0.07289391
245	0x3d01296f	0.031533655
246	0xbd3897e4	-0.04506673
247	0x3dc66cb2	0.09688701
248	0xbd898231	-0.06714285
249	0x3d3d505d	0.04621922
250	0xbce3e9b1	-0.027821394
251	0xbc0e945f	-0.008702367
252	0x3d93795c	0.07200882
253	0xbd092c9a	-0.0334898
254	0x3cb6e938	0.022328004
255	0xbc3855ac	-0.0112508945

actor.2.weight f4 [256, 512]
0	0xbca7bd87	-0.020476116
1	0x3b426888	0.0029664356
2	0x3bf4d3da	0.0074715437
3	0x3c8f477c	0.017490141
4	0x3c3c1bc1	0.011481226
5	0x3bb31acb	0.0054658405
6	0x3c5ccd8d	0.0134767415
7	0x3c4354a4	0.011922035
8	0x3cea8737	0.028628929
9	0xbb3df6ca	-0.002898621
10	0xbc944b38	-0.018102273
11	0x3bfc7d9a	0.0077054026
12	0xbcbd44b0	-0.023104042
13	0xbce3c7b8	-0.027805194
14	0x3cc5678f	0.024097232
15	0xbd0b43e4	-0.034000292
16	0x3d00bf3b	0.03143237
17	0x3c82633d	0.015916461
18	0xbcca216b	-0.024674138
19	0x3d092222	0.033479817
20	0x3d2c627d	0.042086113
21	0xbcdbd11b	-0.026833108
22	0x3cee69b2	0.029103134
23	0x3d019e7e	0.03164529
24	0xbd148e8e	-0.036268763
25	0xbd13179f	-0.0359112
26	0xbcd4f917	-0.025997682
27	0x3cfd8b96	0.030950349
28	0xbafa0cc9	-0.0019077297
29	0x3d21af0b	0.039473575
30	0xbd0f952f	-0.035054382
31	0xbc929181	-0.017891647
32	0xbd194f65	-0.037429232
33	0x3d2050e1	0.039139632
34	0xbd1027dc	-0.035194263
35	0x3d1107f8	0.03540799
36	0xbcf1f89f	-0.029537497
37	0x3b8b130b	0.0042442135
38	0xbcd07e3a	-0.025450815
39	0xbb881413	-0.0041527837
40	0xbc248898	-0.010042332
41	0x3d0b6741	0.034034017
42	0xbc3b487d	-0.011430857
43	0x3d00a8b8	0.031410903
44	0xbcb307d4	-0.021854319
45	0x3caf985d	0.021434957
46	0x3d00d314	0.0314513
47	0xbce94c52	-0.028478775
48	0xbad52f57	-0.0016264719
49	0x3d27c71d	0.040961374
50	0xbbf8f2a4	-0.0075972844
51	0x3c94d6b6	0.018168788
52	0x3cb1de55	0.021712461
53	0xbd1eccd2	-0.03876955
54	0x3c677ad5	0.0141284065
55	0xbc09787d	-0.008390543
56	0xbca4f339	-0.020135509
57	0xbd29ebf9	-0.041484807
58	0x3c35282c	0.011056941
59	0x3d05b5f1	0.032644216
60	0xbceb53cb	-0.028726479
61	0x3b84c48c	0.0040517505
62	0xbd220f3c	-0.03956531
63	0x3cdb3797	0.026759906
64	0x3bfefca2	0.007781581
65	0x3cf28b7f	0.029607533
66	0xbb794c7d	-0.0038039975
67	0xbb76f839	-0.0037684573
68	0xbba2b81c	-0.004965795
69	0x3b5fd40d	0.0034153492
70	0x3c8b77b1	0.017024847
71	0x3d1a44dc	0.037663326
72	0xbd2e5a2a	-0.042566456
73	0x3d1ccfdc	0.038284168
74	0x3c27f0fd	0.010250327
75	0xbbd60931	-0.0065318574
76	0xbcf3444b	-0.02969565
77	0xbc7be70c	-0.01537491
78	0xbd0a6eb2	-0.033796974
79	0xbc780623	-0.015138182
80	0x3c832294	0.0160077
81	0xbd1007e1	-0.035163764
82	0x3cf51d22	0.029921118
83	0x3d4816d5	0.0488499
84	0x3caab918	0.020840213
85	0x3ca848f3	0.020542597
86	0x3d164b37	0.036692824
87	0xbc78e22e	-0.015190644
88	0xbd0dce19	-0.03462038
89	0x3d3ec8d8	0.04657826
90	0xbcefa4b8	-0.029253349
91	0xbd1e7369	-0.038684282
92	0xbc033267	-0.008007622
93	0xbd2bb04e	-0.041916184
94	0x3d0352af	0.032061275
95	0x3b2cb94e	0.0026355567
96	0x3d27f543	0.041005384
97	0xbc86ea18	-0.016469046
98	0xbd0a4df6	-0.033765756
99	0xbcb6a313	-0.022294557
100	0xbaf2a030	-0.0018510874
101	0x3d02376f	0.031791147
102	0x3d285d71	0.041104738
103	0x3d095f5b	0.033538204
104	0x3b9bd131	0.004755162
105	0x3d22e1be	0.039766066
106	0x3b743703	0.0037264235
107	0xbcff68ef	-0.031177966
108	0x3d14f39f	0.036365148
109	0x3ca8b4bd	0.020593995
110	0x3cff619c	0.031174473
111	0x3d07bb35	0.03313752
112	0x3d2b50bd	0.041825045
113	0xbd00c092	-0.03143365
114	0x3d2b5f0e	0.041838698
115	0xbc9cd4f5	-0.019144515
116	0x3ca470f9	0.0200734
117	0xbd0d90e6	-0.034562014
118	0x3cfe333e	0.031030294
119	0x3aff9b91	0.0019501318
120	0x3cc73cfc	0.024321072
121	0x3d16a9c2	0.036782987
122	0xbbc0be8e	-0.005882091
123	0x3c5c6bca	0.013453433
124	0xbc1cd90d	-0.009573233
125	0x3c212f9c	0.009838011
126	0xbd07d6a2	-0.033163674
127	0x3c6db234	0.014507819
128	0x3cb17590	0.021662503
129	0xbcfda66c	-0.030963145
130	0xbc3ff575	-0.011716236
131	0xbbd0e06d	-0.00637441
132	0x3c8549c1	0.01627052
133	0x3c009946	0.007849043
134	0x3d1787ab	0.036994617
135	0xbc8a7855	-0.016903082
136	0xbcf6b4eb	-0.030115565
137	0x3c77f78e	0.015134705
138	0xbba88d77	-0.005143817
139	0x3c5c9641	0.013463558
140	0xbc74c5b9	-0.014939719
141	0x3ce9b227	0.028527332
142	0xbca3159b	-0.019907763
143	0xbd0a7fc1	-0.033813242
144	0xbcb1f5e2	-0.021723691
145	0xbc7e7f3f	-0.0155332675
146	0x3b0eb03c	0.0021772524
147	0xbbe830c8	-0.0070858933
148	0x3d1bada1	0.038007382
149	0x3c43704c	0.011928629
150	0xbd19f10f	-0.037583407
151	0xbd36e9c4	-0.04465653
152	0x3d05adbe	0.032636397
153	0x3cf048f7	0.029331667
154	0x3c00dd95	0.007865329
155	0x3c728958	0.014803253
156	0xbd2c3dbe	-0.04205107
157	0xbd260a14	-0.040536955
158	0x3ceb8cb3	0.028753614
159	0x3c898133	0.01678524
160	0x3ca59aa8	0.020215347
161	0x3cc24178	0.023712859
162	0x3bf2dcd7	0.00741158
163	0x3d145884	0.036217228
164	0xbc871e5e	-0.016493972
165	0xba4bbf79	-0.0007772367
166	0x3d2d01ef	0.042238172
167	0x3b2d4db7	0.0026444027
168	0x3d051bb5	0.032497127
169	0x3cd63def	0.02615258
170	0x3cc318e9	0.023815589
171	0x3c1601a4	0.009155665
172	0x3c5f5236	0.01363044
173	0x3c122dc7	0.008922047
174	0x3ce2ab7c	0.02766966
175	0x3cabb6ed	0.02096125
176	0x3cd15fba	0.025558341
177	0xbd1b0039	-0.03784201
178	0x3c20498f	0.009783163
179	0xbbd3e418	-0.0064664
180	0xbcc1bb86	-0.023648988
181	0x3c4ab628	0.012372531
182	0x3cb525d2	0.02211276
183	0xbc4eec9c	-0.012629654
184	0xbc0ba9c2	-0.00852436
185	0xbcf993c1	-0.030465962
186	0x3bf8a143	0.0075875833
187	0x3c910f24	0.017707415
188	0xbaa4ca71	-0.0012572539
189	0x3c901288	0.017586961
190	0x3cb9c8d8	0.022678778
191	0xbac28de5	-0.0014843313
192	0xbc83e50c	-0.016100429
193	0xbc3f5645	-0.011678283
194	0x3bee4acb	0.0072720996
195	0x3cfdb8d9	0.030971931
196	0x3cfaecf7	0.030630572
197	0xbc0ceca6	-0.008601343
198	0x3cd3e5fb	0.0258665
199	0xbcd6dd72	-0.02622864
200	0xbcf3e1d1	-0.029770764
201	0xbd1a5e01	-0.037687305
202	0xbcd9e52f	-0.026598541
203	0x3ce7e757	0.028308554
204	0xbc0a5c5b	-0.008444871
205	0xbbf24ce7	-0.0073944214
206	0x3be5bbbd	0.0070109055
207	0xbbc590d3	-0.0060292273
208	0xbc9dc31e	-0.019258078
209	0x3caa5301	0.020791532
210	0x3cc2bb90	0.023771077
211	0x3c5f7b93	0.013640302
212	0xbc620afd	-0.013796565
213	0xbcf14cb7	-0.029455526
214	0xbc947617	-0.018122716
215	0xbb1fbe07	-0.002437474
216	0x3ce7e865	0.028309057
217	0x3ca3acf4	0.019979931
218	0x3d14683d	0.036232222
219	0x3c968a9b	0.01837664
220	0xbcfec092	-0.031097684
221	0xbcd4a6aa	-0.025958378
222	0xbbb2c342	-0.0054554055
223	0xbc747107	-0.014919526
224	0x3d178cc0	0.036999464
225	0xbcf95857	-0.030437632
226	0x3c10ebb4	0.0088452585
227	0x3b680501	0.0035403373
228	0x3d101403	0.035175335
229	0x3b986e14	0.004651794
230	0xb68ded5a	-4.229759e-06
231	0x3c5d04c7	0.013489909
232	0xbbf2e006	-0.0074119596
233	0x3c044435	0.008072902
234	0xbd444984	-0.047921672
235	0x3c064f0e	0.008197559
236	0x3c7f4927	0.015581406
237	0xbd287cea	-0.041134752
238	0x3d48e324	0.049044743
239	0x3c28d3ba	0.010304386
240	0x3af4420c	0.0018635406
241	0xbc144fd1	-0.009052233
242	0x3cf98c80	0.030462503
243	0x3c9e2bd0	0.019308
244	0x3c2bf2cb	0.010494898
245	0x3d1a0974	0.03760667
246	0x3b9a6b72	0.0047125155
247	0xbc866cb7	-0.016409261
248	0xbc914ba9	-0.017736273
249	0x3bc03796	0.0058660014
250	0xbc65a8e7	-0.01401732
251	0xbcf7a426	-0.03022964
252	0xbd0942ea	-0.03351108
253	0xbc9561d7	-0.01823513
254	0xbcbb2fbe	-0.022849914
255	0x3bb4ca6e	0.0055172956

actor.2.bias f4 [256]
0	0x3cdfba4b	0.027310511
1	0xbcdc69e0	-0.026905954
2	0x3c055cd2	0.008139806
3	0xbd0b18c0	-0.03395915
4	0xbccf5dc0	-0.025313258
5	0xbcc3a21b	-0.023881009
6	0xbd39de8d	-0.045378257
7	0x3c83cba4	0.016088314
8	0x3c97ecc9	0.018545525
9	0xbc22a835	-0.009927799
10	0x3cb23ece	0.021758463
11	0x3d3af42f	0.045643028
12	0x3c106567	0.008813239
13	0x3cdc78ea	0.026913125
14	0xbbff86f5	-0.0077980706
15	0x3c928e5c	0.017890148
16	0x3cfb23a5	0.030656645
17	0xbd165ebf	-0.03671145
18	0x3b892a3d	0.0041859434
19	0xbcffd40e	-0.031229045
20	0xbd1cefc8	-0.03831461
21	0x3c988028	0.018615797
22	0x3ce63663	0.028102105
23	0xb898c1e8	-7.284043e-05
24	0xbce5776f	-0.028011052
25	0xbd1b4473	-0.037907075
26	0x3d1b4700	0.037909508
27	0x3c67fe82	0.0141598005
28	0x3c4e9add	0.0126101645
29	0xbd197c45	-0.03747203
30	0x3a6c6383	0.0009017514
31	0xbca9997b	-0.020703068
32	0x3c6948b1	0.014238522
33	0x3cdb3cd5	0.026762405
34	0xbce1fd8b	-0.027586719
35	0xbcec933e	-0.028878804
36	0xbd250348	-0.040286332
37	0xbd248d4b	-0.04017381
38	0xbc8bf208	-0.017083183
39	0xbd1dcb8c	-0.038524196
40	0xbc47c0dc	-0.012191977
41	0x3a677f03	0.0008830877
42	0x3cb2b7cd	0.021816159
43	0x3c9a2878	0.018818125
44	0x3c689883	0.014196518
45	0x3d0f182e	0.03493517
46	0x3b719918	0.0036864933
47	0x3cc548d8	0.024082586
48	0x3ca2a4e6	0.01985402
49	0xbcf74fee	-0.03018948
50	0xbc2873c1	-0.010281504
51	0x3caabcb4	0.020841934
52	0xbbfaa56f	-0.0076491158
53	0xbcb1bdb3	-0.021696901
54	0x3d1da5d1	0.038488213
55	0x3d00f7a7	0.03148618
56	0x3c67720f	0.014126315
57	0xbc8bb053	-0.017051851
58	0x3c0304c8	0.007996745
59	0x3b90906c	0.0044117477
60	0x3d161ca2	0.0366484
61	0x3cfec140	0.031098008
62	0xbd1ea416	-0.038730703
63	0x3bee0080	0.007263243
64	0x3b244c71	0.0025069977
65	0xbab63935	-0.0013902547
66	0x3d33955f	0.043843623
67	0x3d13f439	0.03612158
68	0x3b2a0cbf	0.0025947539
69	0x3a8e7c9d	0.0010870878
70	0x3b8f12f0	0.004366271
71	0x3c410c33	0.011782694
72	0x3d4902dd	0.049074996
73	0x3c4a2638	0.012338214
74	0x3a973168	0.001153511
75	0x3cb69563	0.02228803
76	0x3b56e44b	0.0032789882
77	0x3bf0ebd7	0.007352333
78	0x3ca5915a	0.02021091
79	0xbc059b82	-0.008154752
80	0x3d04eddf	0.032453414
81	0xbd30bf3a	-0.043151118
82	0x3d1f1125	0.03883471
83	0xbcc6e4bc	-0.02427899
84	0x3d3498aa	0.044090904
85	0xbcde3d19	-0.027128743
86	0x3bffb3e0	0.007803425
87	0xbd4346e1	-0.047675017
88	0x3d388d01	0.045056347
89	0xbd278e5b	-0.040907245
90	0x3cbde537	0.023180587
91	0xbc41a94e	-0.011820151
92	0x3ccfe6a0	0.025378525
93	0x3cf1d2f0	0.029519528
94	0xbc55f913	-0.013059872
95	0xbc558dc1	-0.013034285
96	0x3c8d6830	0.017261595
97	0xbd13aebe	-0.03605532
98	0xbce4f8b3	-0.02795062
99	0x3cb2f4e0	0.021845281
100	0xbd1eaf5b	-0.03874145
101	0x3c07e6ac	0.008294743
102	0x3d291e08	0.041288406
103	0x3cf93634	0.030421354
104	0x3c9d203a	0.019180406
105	0xbd33723d	-0.043810118
106	0x3d3ea1ef	0.04654115
107	0xbd1f5e84	-0.038908496
108	0x3c49ea06	0.012323862
109	0x3b2f0648	0.0026706625
110	0x3bb0ead9	0.00539909
111	0xbc9a5582	-0.018839601
112	0x3bed5d0b	0.0072437576
113	0x38bc9939	8.9930785e-05
114	0x3d1ff836	0.03905507
115	0xbc9e6ec9	-0.019339936
116	0xbacc5342	-0.0015588778
117	0x3ca7dd96	0.020491403
118	0x3d075eae	0.033049278
119	0xbccba5be	-0.024859305
120	0x3c1b35c6	0.00947327
121	0xbacb4f79	-0.0015511356
122	0xb953efe9	-0.00020211902
123	0x3cb2869d	0.021792704
124	0x3c253813	0.01008417
125	0x3d135eb2	0.03597898
126	0xbb1e560b	-0.0024160172
127	0x3cc3ceef	0.023902385
128	0xbd2416a9	-0.040060673
129	0x3c46f382	0.012143018
130	0xbc283ad5	-0.010267933
131	0x3c0e4581	0.008683563
132	0xbd35adcf	-0.04435521
133	0x3ce0745e	0.027399238
134	0xbc32a121	-0.010902674
135	0xbc0469d3	-0.008081871
136	0xbc1e16bb	-0.009648974
137	0x3cb94803	0.022617346
138	0x3cecf7bc	0.028926723
139	0xbca183e5	-0.019716213
140	0x3d2c157b	0.042012673
141	0xbc9064c5	-0.017626176
142	0x3cd99f0e	0.026565101
143	0xbce43958	-0.027859375
144	0x3cafe880	0.02147317
145	0x3c97ca03	0.018528944
146	0xbc059f06	-0.00815559
147	0x3ce78a42	0.028264169
148	0x3d120560	0.035649657
149	0xbd358cd9	-0.044323776
150	0x3c6a0f34	0.014285851
151	0xbc50a711	-0.012735144
152	0x3cb8be1f	0.022551594
153	0x3c0683c9	0.008210131
154	0xbce6eebc	-0.02819001
155	0xbca255e8	-0.019816354
156	0xbc19b230	-0.009380862
157	0xbd0a08b7	-0.033699717
158	0x3d2a9a63	0.04165114
159	0x3d2876fd	0.0411291
160	0xbc8503b1	-0.016237112
161	0xbc57bd2c	-0.013167661
162	0xbcf23c35	-0.029569725
163	0xbcd4ae4a	-0.025962014
164	0x3b9c734e	0.0047744876
165	0xbd0a598a	-0.033776797
166	0xbc865990	-0.016400129
167	0x3cc40401	0.02392769
168	0xbc3db90b	-0.011579762
169	0xbbc00610	-0.0058600977
170	0xbc80b88d	-0.015713
171	0x3c7c9f22	0.0154188
172	0x3d2288eb	0.039681356
173	0x3ce5ef08	0.02806808
174	0x3a5327a3	0.00080549176
175	0xbb6915cd	-0.0035565973
176	0x3c87040f	0.016481427
177	0x385d404d	5.275039e-05
178	0x3d4d0e80	0.050062656
179	0xbbae75a5	-0.005324083
180	0x3ca4317b	0.020043125
181	0x3cc50411	0.02404979
182	0x3b9d6ea2	0.004804448
183	0xbd40775c	-0.04698883
184	0x3d1fb7d4	0.03899367
185	0xbb8ca292	-0.004291841
186	0x3bb14525	0.005409854
187	0xbc20c5db	-0.009812797
188	0x3b7b9dd5	0.0038393636
189	0xbbaa9d25	-0.0052067214
190	0xbd101ff5	-0.035186727
191	0xbaf32628	-0.00185508
192	0x3c804e82	0.015662435
193	0xbccbef0d	-0.024894262
194	0x3bd7f2b8	0.0065902136
195	0xbd06099e	-0.032724015
196	0x3d0b58ac	0.03402011
197	0x3d0de2b7	0.03464004
198	0x3d317263	0.04332198
199	0x3be657a3	0.00702949
200	0x3ca0958f	0.019602565
201	0xbd2ed3af	-0.042682346
202	0x3c53ae60	0.012919992
203	0xbcdb2001	-0.02674866
204	0xbc8cf76c	-0.017207824
205	0x3cc1eb94	0.023671903
206	0x3d3842e4	0.044985667
207	0x3c85fe2d	0.016356552
208	0xbd1dc38a	-0.03851656
209	0xbd0625ad	-0.032750774
210	0xbc2579d2	-0.010099845
211	0xbd35b0ae	-0.044357948
212	0x3d10fef4	0.035399392
213	0xbb316687	-0.0027069168
214	0x3d2aa159	0.04165778
215	0x3b9634dd	0.0045839385
216	0xbd1c2129	-0.03811756
217	0x3c1359d8	0.008993588
218	0xbcb41117	-0.021980805
219	0x3cd1e490	0.025621682
220	0xbc04e352	-0.008110838
221	0x3bf058df	0.007334813
222	0x3cb42b99	0.021993445
223	0x3c1cdd6a	0.009574274
224	0xb94d6dd9	-0.00019591245
225	0x3d35819c	0.04431306
226	0x3cffc3c8	0.031221285
227	0x3bbe2326	0.00580253
228	0xbd0d8105	-0.03454687
229	0xbd036cd5	-0.032086212
230	0xbd05511f	-0.032548066
231	0xbca5bacf	-0.020230679
232	0x3d17b203	0.037035
233	0xbc1b6a3d	-0.009485778
234	0x3ccfefe7	0.025382949
235	0x3cc69431	0.024240585
236	0xbcb66f94	-0.022270001
237	0xbb9a96b6	-0.004717673
238	0x3cba5a29	0.02274807
239	0xbc600963	-0.013674113
240	0x3cd48a26	0.02594478
241	0xbd2991d9	-0.041398857
242	0xbd2b4417	-0.041812982
243	0x3ce4eee1	0.027945938
244	0xbceaaacb	-0.028645894
245	0x3d1c4168	0.038148314
246	0xba65b97a	-0.0008763295
247	0xbc887df6	-0.016661625
248	0x3c7f5094	0.015583176
249	0xbcbdd366	-0.023172092
250	0x3d2bfe54	0.041990593
251	0xbd17d409	-0.037067447
252	0x3cded438	0.027200803
253	0xbd3108d5	-0.043221314
254	0x3d0ca63e	0.03433823
255	0x3bb86ff7	0.0056285816

actor.4.weight f4 [128, 256]
0	0xbd053d6a	-0.032529272
1	0x3c6495e0	0.013951749
2	0x3bbf5c1b	0.0058398372
3	0x3c54ac65	0.012980555
4	0xbd6f5fff	-0.05844116
5	0xbd8ebdfb	-0.0696983
6	0x3d5b0255	0.05346902
7	0xbca1ce38	-0.019751653
8	0x3cebdc42	0.02879155
9	0x3d486fa7	0.048934605
10	0xbd6d1ab9	-0.057886813
11	0x3d052048	0.03250149
12	0xbd6698d5	-0.056298096
13	0xbd72e1e2	-0.05929745
14	0xbcac81f7	-0.021058066
15	0xbd064e60	-0.032789588
16	0xbc8bfde3	-0.017088836
17	0x3c6d24ce	0.014474107
18	0x3cd9e6e4	0.026599355
19	0x3d06b029	0.032882843
20	0x3d7f200e	0.06228643
21	0xbcb5090f	-0.022099046
22	0x3d089b5e	0.033351295
23	0x3c849d6d	0.016188348
24	0xbd2b3f55	-0.041808445
25	0x3c0b2dce	0.008494807
26	0x3c83291b	0.016010812
27	0xbd26ea5c	-0.040750846
28	0x3be5c033	0.0070114373
29	0x3cfadc57	0.030622644
30	0xbca6cd46	-0.020361554
31	0xbc1237b9	-0.008924418
32	0x3bedd2c6	0.007257792
33	0x3d128530	0.03577155
34	0x3a3fd09f	0.0007317159
35	0xbd0e8674	-0.034796193
36	0xbd5ea51b	-0.054356676
37	0xbbf71bfe	-0.0075411787
38	0xbd3a0c2e	-0.04542177
39	0x3d6f5569	0.058431063
40	0xbc6be13e	-0.014396964
41	0x3a064123	0.00051214005
42	0xbb984ab5	-0.0046475776
43	0xbbe1e9e3	-0.0068943365
44	0x3d219111	0.039444987
45	0xbd713820	-0.058891416
46	0xbd3454a1	-0.04402602
47	0xbd5c8381	-0.05383635
48	0xbb661b78	-0.0035111587
49	0xbd11a88f	-0.03556114
50	0xbd5436a1	-0.05180991
51	0xbd1745f2	-0.03693194
52	0xbbe60d29	-0.007020612
53	0xbd831dec	-0.064021915
54	0xbd1bf434	-0.038074687
55	0xbd2d8345	-0.042361517
56	0x3d8734ee	0.066018924
57	0x3c40dc33	0.01177125
58	0xbd4f83f2	-0.050662942
59	0xbcea6a0f	-0.028615026
60	0x3b645c88	0.0034845192
61	0xbc1b661e	-0.009484796
62	0x3d11f1a4	0.035630837
63	0xbcc03dc6	-0.023466956
64	0x3d15576e	0.036460333
65	0x3d0ea41a	0.03482447
66	0x3ba98a1e	0.0051739356
67	0x3b853f2e	0.0040663695
68	0x3b66d4c5	0.0035222035
69	0xbc510eae	-0.012759848
70	0x3cbc63ae	0.02299675
71	0x3bd9f8a4	0.0066519547
72	0x3d326ec3	0.04356266
73	0xbcedfd71	-0.029051514
74	0xba5c2631	-0.0008398025
75	0xbd465bf3	-0.048427533
76	0xbd0fe687	-0.035131957
77	0x3d363ea2	0.044493325
78	0x3c536826	0.012903249
79	0x3d62b6d6	0.055350147
80	0xbd89b39e	-0.067237124
81	0x3c454fa2	0.012042912
82	0x3b273dac	0.0025518937
83	0xbab0c6e5	-0.001348701
84	0x3d779328	0.060443074
85	0xbc83920e	-0.016060855
86	0x3bc5ad14	0.0060325954
87	0x3d668230	0.0562765
88	0xbd0d2aa4	-0.034464493
89	0x3d79cde1	0.060987357
90	0x3d11ce90	0.035597384
91	0xbd0eb361	-0.034839038
92	0x39c56030	0.00037646433
93	0xbc01460c	-0.007890236
94	0x3d71fa17	0.059076395
95	0x3d1ca54d	0.03824358
96	0x3d5bec8a	0.053692378
97	0x3d17d211	0.03706557
98	0x3d3c29ba	0.04593823
99	0x3d707902	0.058709152
100	0x3d7076fb	0.05870722
101	0xbc387256	-0.011257729
102	0xbd2a1c1e	-0.04153072
103	0xbcf08b91	-0.029363425
104	0xbcebe7b2	-0.028797004
105	0xbc88841c	-0.016664557
106	0xbd6d87e1	-0.057990912
107	0x3d638ac2	0.05555225
108	0x3cb7ca7d	0.022435421
109	0xbd6ef4f9	-0.058339093
110	0x3ccb9764	0.024852462
111	0xbbd66215	-0.006542454
112	0x3cece8e6	0.028919648
113	0x3b507188	0.003180595
114	0xbd4284fa	-0.047490098
115	0xbd63b954	-0.055596665
116	0x3bc85025	0.0061130696
117	0xbd18ba41	-0.037287
118	0x3ca317a9	0.019908743
119	0x3cc98260	0.0245983
120	0x3d829eeb	0.063779674
121	0x3c9db983	0.019253498
122	0x3d6b1317	0.057391252
123	0xbd34bac1	-0.044123415
124	0xbcabeb0e	-0.020986106
125	0xbd005021	-0.031326417
126	0x3cba7d24	0.02276475
127	0x3c01a569	0.007912972
128	0xba595d06	-0.00082917546
129	0x3a7bec09	0.0009610062
130	0x3c3196b8	0.010839157
131	0xbc9c7b8d	-0.019101882
132	0x3d29809d	0.04138242
133	0x3c873a6e	0.016507354
134	0x3d355652	0.044271775
135	0xbc8f6e94	-0.017508782
136	0xbcc1a6ff	-0.0236392
137	0x3d5e278a	0.054236926
138	0x3cc8436b	0.02444621
139	0xbd828c0f	-0.0637437
140	0x3c44e5ae	0.0120176505
141	0x3c158dcd	0.009128046
142	0x3d1a8635	0.037725646
143	0xbd699659	-0.05702815
144	0xbbaad405	-0.005213263
145	0x3d419bc6	0.047267698
146	0x3d40ebbc	0.047099814
147	0x3c2e4a77	0.010637871
148	0x3c057c9b	0.008147384
149	0x39acaf78	0.0003293713
150	0xbcd2bfd4	-0.025726236
151	0xbd48c0fe	-0.049012177
152	0x3cb7ab52	0.02242056
153	0x3d1e8736	0.038703166
154	0xbc9fb026	-0.019493174
155	0x3cfdbb9d	0.03097325
156	0x3d49d8eb	0.049279135
157	0x3d106559	0.035252903
158	0xbc8e6e2e	-0.017386522
159	0xbd02f2cc	-0.03196983
160	0xbca7d67d	-0.020488018
161	0x3bc8d729	0.0061291647
162	0x3d1d7d4d	0.038449574
163	0xbd2abca1	-0.041683797
164	0xbce39911	-0.027782949
165	0x3c51d646	0.012807434
166	0xbcd1c25f	-0.025605379
167	0xbcfc5c73	-0.030805802
168	0xbc8eea71	-0.017445775
169	0x3d831a99	0.064015575
170	0xbcd07051	-0.025444182
171	0xbd66c2bc	-0.056338057
172	0x3d0fa504	0.03506948
173	0x3d5b4c2c	0.05353944
174	0xbd040093	-0.03222711
175	0xbc8200b5	-0.015869478
176	0xbd019678	-0.03163764
177	0x3c30dc59	0.0107947225
178	0xbd16537e	-0.036700718
179	0xbd061150	-0.032731354
180	0xbd752aa3	-0.059855115
181	0xbd586291	-0.052828375
182	0xbd7226c4	-0.059119
183	0x3cf4eacd	0.029897118
184	0x3d2242c6	0.03961446
185	0xbd207e59	-0.039182995
186	0x3d5b13c2	0.05348564
187	0x3bc6aa96	0.006062816
188	0x3c9a1b4b	0.018811842
189	0x3d197e70	0.037474096
190	0xbc9edd29	-0.019392567
191	0x3d1be2e7	0.038058188
192	0x3c347fcb	0.011016796
193	0xbd264604	-0.040594116
194	0x3ccbffee	0.02490231
195	0xbd68011d	-0.056641687
196	0xbd78d87c	-0.06075333
197	0xbd5a8da5	-0.05335774
198	0x3d1a57f7	0.037681546
199	0x3c2edb1b	0.010672356
200	0x3a3e1863	0.00072515587
201	0x3d48ec81	0.049053673
202	0xbd1768f2	-0.036965318
203	0xbc84a638	-0.01619254
204	0x3d411263	0.047136676
205	0xbd25d32b	-0.04048459
206	0xbd4a7302	-0.049426086
207	0xbd4131e4	-0.04716672
208	0x3cfdcac5	0.030980477
209	0xbc1af045	-0.009456699
210	0x3a6f695a	0.0009132825
211	0xbd27b7f6	-0.040946923
212	0x3d45e594	0.048314646
213	0xbc8d4cea	-0.01724859
214	0x3d221f52	0.03958065
215	0x3c8c0036	0.017089944
216	0xbd15aff3	-0.03654475
217	0x3d2fc31a	0.042910673
218	0xbc92ae8a	-0.017905492
219	0x3d34903a	0.044082858
220	0x3d0260fb	0.03183077
221	0xbc41f630	-0.011838481
222	0xbbb73c37	-0.005591895
223	0x3d510ce1	0.051037673
224	0xbb638fb4	-0.0034723105
225	0x3d402ceb	0.046917837
226	0xbd3f5f57	-0.046721783
227	0xbd2585f1	-0.04041094
228	0xbd00459d	-0.03131639
229	0xbd80057a	-0.062510446
230	0xbc106e4d	-0.00881536
231	0xbbc52d73	-0.006017381
232	0x3d396e68	0.045271307
233	0x3c043e87	0.008071548
234	0x3d26c3e5	0.040714163
235	0x3d34932c	0.044085667
236	0x3c3b7dd8	0.011443578
237	0xbcc153da	-0.023599554
238	0xbd5534c5	-0.052052278
239	0xbc04bb6a	-0.008101324
240	0xbbc55f2a	-0.0060233073
241	0x3c95db86	0.018293153
242	0x3b618f3d	0.0034417652
243	0xbcafa280	-0.02143979
244	0x3c1d14a5	0.009587442
245	0x3d215f64	0.039397612
246	0xbccba4fd	-0.024858946
247	0xbca97de0	-0.020689905
248	0x3d40f4b2	0.04710836
249	0x3c556837	0.013025335
250	0x3d3d9ec5	0.046293993
251	0x3d600731	0.05469436
252	0x3d3fe10b	0.046845477
253	0xbd455691	-0.04817826
254	0x3d59160b	0.052999537
255	0xbce71041	-0.028205993

actor.4.bias f4 [128]
0	0x3ce749d9	0.028233455
1	0x3d84db29	0.06487114
2	0x3c995720	0.018718302
3	0xbd805cd1	-0.06267703
4	0xbbe9d938	-0.00713649
5	0xbccce7eb	-0.02501293
6	0xbcdd3192	-0.027001176
7	0xbd0b29d9	-0.033975456
8	0x3ad1ee41	0.001601644
9	0x3a39feb7	0.00070951454
10	0x3d62e471	0.05539364
11	0x3d5e0fed	0.054214407
12	0x3c2abf7c	0.01042163
13	0x3d00f20b	0.03148083
14	0xbd011206	-0.03151133
15	0xbcbfc4e5	-0.023409316
16	0xbd650547	-0.055913236
17	0x3cf7084e	0.030155327
18	0x3cca3219	0.024682092
19	0xbd30d20c	-0.043169066
20	0x3d480299	0.048830602
21	0xbcceb680	-0.025233507
22	0x3d50257e	0.050817005
23	0xbd514ec4	-0.051100507
24	0x3d38b8ca	0.045098104
25	0x3d1ac807	0.037788417
26	0x3b73f4a1	0.0037224668
27	0xbc77e5a8	-0.015130438
28	0xbb1b7173	-0.0023718744
29	0x3c80e1a5	0.015732596
30	0x3d2ae3fe	0.041721337
31	0x3d22907c	0.039688572
32	0x3d82853b	0.06373068
33	0xbb25d184	-0.0025301883
34	0xbd75f72e	-0.060050182
35	0xb940ab39	-0.00018374332
36	0x39b53a11	0.00034566273
37	0x3c2bc91f	0.010484963
38	0x3cf5849c	0.02997046
39	0x3d0a4f43	0.033766996
40	0x3d357efc	0.044310555
41	0x3d270dc7	0.040784623
42	0x3d53ae05	0.05167963
43	0x3b9a0a3a	0.004700926
44	0xbcd55df0	-0.02604577
45	0x3d0dbade	0.03460204
46	0xbd0be4a3	-0.03415359
47	0xbd14f124	-0.036362782
48	0xbc67eb11	-0.014155165
49	0xbbfd2239	-0.007725027
50	0xbd492cc3	-0.049114954
51	0xbd82f6d4	-0.06394735
52	0x3d440cbe	0.047863714
53	0x3d0c4af7	0.03425118
54	0xbbdcba11	-0.006736048
55	0xbd282f61	-0.04106081
56	0x3d026117	0.031830873
57	0xbcee7e6a	-0.029113013
58	0xbd190a77	-0.037363496
59	0x3c8676fb	0.016414156
60	0xbcb2f69e	-0.021846112
61	0x3d000d09	0.03126243
62	0xbca0c953	-0.019627249
63	0xbd1f0b6d	-0.038829256
64	0xbd0a848f	-0.033817824
65	0xbc8f7e99	-0.017516421
66	0x37d94d17	2.5904314e-05
67	0x3d5e70fd	0.054306973
68	0xbd4241d4	-0.04742606
69	0xbc8939f6	-0.01675127
70	0x3d6ecbc8	0.05829981
71	0x3ca17d65	0.019713113
72	0xbcdbcc05	-0.026830683
73	0x3c97714d	0.018486643
74	0xbd50f269	-0.05101243
75	0xbd82562e	-0.06364094
76	0xbc54428d	-0.01295532
77	0xbc6b0814	-0.014345188
78	0xbd6b2b10	-0.057414114
79	0xbd54ae1f	-0.051923867
80	0x3d705897	0.058678236
81	0x3d5c097e	0.05371999
82	0x3d17e764	0.037085906
83	0xbd0c80e4	-0.034302607
84	0xbd79748c	-0.060902163
85	0x3c5a4b38	0.013323598
86	0xbcd96312	-0.026536498
87	0x3d8d81d2	0.06909527
88	0xbc578878	-0.013155095
89	0x3ce69cff	0.028151033
90	0xbd23f7c7	-0.04003122
91	0x3a11fd0f	0.00055690197
92	0xbcc12ec2	-0.023581866
93	0x3cf5b4db	0.029993465
94	0xbbca56e6	-0.00617491
95	0x3d21f158	0.039536804
96	0xbc1fc179	-0.009750717
97	0x3d52d7e2	0.051475413
98	0x3cf6842d	0.030092323
99	0xbd683324	-0.056689397
100	0x3d609e64	0.054838553
101	0x3d207735	0.039176185
102	0xbd0ace5f	-0.033888217
103	0xbd28a863	-0.04117621
104	0x3d68de66	0.05685272
105	0x3c5e0c3d	0.0135527225
106	0xbd33eea9	-0.043928776
107	0x3d3197c5	0.04335763
108	0x3cd6de6d	0.026229108
109	0xbd2029c4	-0.03910233
110	0xbd2e5d1b	-0.04256926
111	0xbcaa9754	-0.020824112
112	0xbd5165e2	-0.051122554
113	0x3c15e766	0.009149408
114	0x3acacbd4	0.0015472122
115	0xbd034d66	-0.032056235
116	0x3d8a8299	0.06763191
117	0xbd73ea7d	-0.059549797
118	0x3d27cd0d	0.040967036
119	0x3cbce90e	0.023060348
120	0x3cacd5dd	0.021098072
121	0x3cf27c55	0.029600302
122	0xbd4eb5ad	-0.05046623
123	0xbc7048fa	-0.0146658365
124	0xbc021db7	-0.007941655
125	0xbcc38d01	-0.023870947
126	0xbcfe7d14	-0.031065501
127	0x39c56566	0.00037650316

actor.6.weight f4 [23, 128]
0	0xbd53ab41	-0.051676992
1	0xbc9fac36	-0.019491296
2	0xbc8b0247	-0.01696886
3	0x3d65f01c	0.05613719
4	0x3d2a8920	0.04163468
5	0x3c844343	0.016145354
6	0xbda262e9	-0.07929022
7	0xbd893691	-0.06699861
8	0xbd9f7b23	-0.07787158
9	0x3d7403ee	0.05957406
10	0xbd077d15	-0.033078272
11	0x3d9866ae	0.074414596
12	0xbd38990b	-0.04506783
13	0xbd5c5691	-0.053793494
14	0xbc88475b	-0.016635587
15	0x3c2fa3f7	0.010720245
16	0x39aa21ce	0.00032450113
17	0x3cacfa04	0.02111531
18	0xbda1fe36	-0.07909815
19	0xbd4d3811	-0.050102297
20	0xbd731ebb	-0.05935548
21	0xbcf73fe0	-0.030181825
22	0x3d69cf9e	0.057082765
23	0x3da8e4f6	0.08246796
24	0x3b74ddcc	0.0037363647
25	0xbbfd88ae	-0.0077372408
26	0xbc78e844	-0.015192095
27	0xbd552c95	-0.05204447
28	0xbcb24f17	-0.021766229
29	0xbd5d0ba5	-0.053966183
30	0xbb94b1f7	-0.0045378166
31	0xbd9be26b	-0.07611545
32	0xba8e5151	-0.0010857974
33	0xbcc852e9	-0.024453597
34	0x3d5226b6	0.05130645
35	0xbd51c098	-0.051209062
36	0x3ca781ae	0.020447578
37	0x3c86277e	0.016376253
38	0x3d31db98	0.04342231
39	0x3d5751b1	0.05256814
40	0xbd908263	-0.07056119
41	0x3d8c9c3b	0.06865736
42	0x3c6596bd	0.01401299
43	0x3bbbdc5c	0.005733056
44	0x3beeb278	0.0072844587
45	0x3d6c97a9	0.057761822
46	0xbd85d566	-0.06534843
47	0x3d7493f4	0.05971141
48	0x3d55a0c2	0.052155264
49	0xbd8be0ba	-0.068299726
50	0x3db20fb7	0.086944036
51	0xbcae5f69	-0.02128573
52	0xbd60931a	-0.054827787
53	0xbc641687	-0.013921387
54	0xbd68a6cd	-0.0567997
55	0x3c0121e6	0.007881617
56	0xbdbc709f	-0.09201168
57	0xbd3226b9	-0.04349396
58	0x3d2c79ed	0.042108465
59	0xbd4decd4	-0.050274685
60	0x3d72afba	0.059249617
61	0xbd9e95db	-0.077434264
62	0x3d635722	0.05550302
63	0xbd86bd03	-0.0657902
64	0x3db5c42e	0.08875309
65	0x3da38748	0.07984787
66	0x3d25ff63	0.04052676
67	0xbcb27737	-0.021785362
68	0x3cf25b69	0.029584603
69	0x3d407e0d	0.04699521
70	0xbd58d60d	-0.05293851
71	0xbc9b4e5c	-0.018958263
72	0x3be906c2	0.0071114013
73	0xbd8b1e73	-0.06792917
74	0x3c524d4e	0.012835814
75	0x3da08291	0.078374036
76	0xbd8458c5	-0.06462244
77	0x3d124f45	0.03572013
78	0x3d78afc0	0.060714483
79	0xbb8abaa1	-0.0042336737
80	0xba62452f	-0.0008631525
81	0x3d9ee271	0.07758034
82	0xbd9d7919	-0.07689113
83	0xbb4e34a6	-0.0031464486
84	0x3d8d1009	0.06887824
85	0x3b913334	0.0044311527
86	0x3d2496f2	0.040183015
87	0x3d57ae00	0.052656174
88	0xbd0c4324	-0.034243718
89	0x3d1f8845	0.038948316
90	0x3cda540f	0.02665141
91	0x3d4bc68d	0.0497499
92	0x3d90f067	0.07077103
93	0x3d436eae	0.047712974
94	0xbda3fa37	-0.08006709
95	0xbca354f7	-0.019937975
96	0xbd5c49d5	-0.05378135
97	0xbdc5a1d8	-0.0965001
98	0x3d291330	0.041278064
99	0xbd8e4a4b	-0.06947764
100	0xbc8bfb3c	-0.017087571
101	0xbd02b54c	-0.03191118
102	0x3cc34ccf	0.023840336
103	0xbd873cf4	-0.06603423
104	0x3daca241	0.08429385
105	0xbc39f6de	-0.011350362
106	0x3b8fdf9a	0.004390669
107	0x3daa67d5	0.08320586
108	0xbcc7995a	-0.024365116
109	0xbd3e076a	-0.04639379
110	0xbd8172eb	-0.06320747
111	0x3d46ec0e	0.048564963
112	0x3cc39de4	0.023878999
113	0x3d57056f	0.052495416
114	0x3d908294	0.07056156
115	0xbd793ba7	-0.060847905
116	0x3c0888cc	0.008333396
117	0x3da924de	0.08258985
118	0x3cf1f8bb	0.02953755
119	0xbcdc35b7	-0.026881082
120	0xbd81c791	-0.063368924
121	0xbd3ecd74	-0.046582654
122	0xbaa1d225	-0.0012345953
123	0xbc8ba3e7	-0.017045928
124	0x3d553cb5	0.052059848
125	0xbb89354b	-0.004187261
126	0xbd75d5c6	-0.060018323
127	0x3cef4d49	0.029211657
128	0x3d5aa276	0.05337759
129	0x3d0ee067	0.034881976
130	0xbc6631d1	-0.014049963
131	0xbdb48614	-0.08814636
132	0x3d2e8c8e	0.042614512
133	0xbd9b6a4f	-0.07588636
134	0x3b15f896	0.0022883764
135	0x3daaa910	0.08333027
136	0x3db88755	0.090101875
137	0xbb938627	-0.004502076
138	0x3cb153fc	0.021646492
139	0x3d11f219	0.035631273
140	0x3db2a09e	0.087220415
141	0xbcb55509	-0.022135274
142	0xbcf467c0	-0.029834628
143	0xbd8ba237	-0.068180494
144	0x3d6cf87a	0.057854153
145	0xbc828733	-0.015933609
146	0x3d9ed261	0.0775497
147	0xbce98a81	-0.028508427
148	0xbd9c75ac	-0.07639632
149	0xbd7bcf46	-0.06147697
150	0xbd2d6700	-0.042334557
151	0x3ab7a919	0.0014012187
152	0xbd451de2	-0.0481242
153	0xbd6aaab4	-0.0572917
154	0xbd3d9381	-0.04628325
155	0xbcd51b33	-0.026013946
156	0xbd220fbd	-0.03956579
157	0xbdc20ce5	-0.09475116
158	0xbdae6f85	-0.085173644
159	0xbd40d905	-0.047081966
160	0x3cb0d4f9	0.021585928
161	0xbc829927	-0.01594217
162	0xbbb47b67	-0.005507875
163	0x396e4113	0.00022721691
164	0x3d130c08	0.035900146
165	0x3d4c5c13	0.049892496
166	0xbd9e0c1a	-0.07717152
167	0xbd3a42ba	-0.04547379
168	0x3d98ffbe	0.07470654
169	0xbd8d3bc1	-0.06896163
170	0x3c43f786	0.01196087
171	0x3d56e8b7	0.052468028
172	0xbc82b8dc	-0.015957288
173	0xbd70ba10	-0.058771193
174	0xbbcd8407	-0.0062718424
175	0x3a82b7e5	0.0009973018
176	0x3d9628ac	0.07331976
177	0xbd3d520e	-0.04622083
178	0xbba18c20	-0.0049300343
179	0xbd6a0b92	-0.05713994
180	0x3d811f2b	0.06304773
181	0x3c3f172d	0.01166324
182	0x3d851d2b	0.06499704
183	0xbd3ac987	-0.045602348
184	0xbda8e72b	-0.08247217
185	0x3d83edbb	0.06441828
186	0x3dae59e4	0.08513239
187	0xbac804a6	-0.0015260174
188	0xbd9a44f5	-0.07532684
189	0x3db3557d	0.0875654
190	0x3c06d3d5	0.008229216
191	0x3d958d48	0.07302338
192	0x3c085eb4	0.00832336
193	0x3d6f012a	0.05835072
194	0x3d2fa617	0.042883005
195	0xbd5ef5d3	-0.054433655
196	0x3d7ab040	0.06120324
197	0x3c9aa1f3	0.018876052
198	0x3d086097	0.03329524
199	0x3d8ff045	0.0702825
200	0xbd5b04fb	-0.053471547
201	0xbbe5e458	-0.007015746
202	0xbcbd3779	-0.02309774
203	0xbd0362e4	-0.03207673
204	0x3d845e25	0.06463269
205	0x3d373bd6	0.0447348
206	0xbc859321	-0.016305508
207	0xbd7c1d73	-0.061551522
208	0xbdb13507	-0.08652692
209	0xb87494e1	-5.8312788e-05
210	0x3d0dde76	0.034635983
211	0xbd367d03	-0.044552814
212	0x3d8b73bb	0.06809183
213	0x3c0fa021	0.008766205
214	0xbdc1f8fa	-0.09471317
215	0xbd6eba2b	-0.058283012
216	0x3d2aac8e	0.041668467
217	0xbdafed0a	-0.085901335
218	0xbc851f06	-0.016250145
219	0xbd0ddb34	-0.034632877
220	0xbd259279	-0.04042289
221	0xbd3c4043	-0.045959722
222	0x3d2521ff	0.040315624
223	0x3d950408	0.072761595
224	0xbc7554a7	-0.014973796
225	0x3d999dee	0.07500826
226	0xbd1a1822	-0.03762067
227	0x3d89a153	0.06720223
228	0x3d6ca438	0.0577738
229	0x3c58a90f	0.0132239
230	0xbd9c2675	-0.076245226
231	0x3db4da15	0.08830658
232	0x3d2114ca	0.039326467
233	0x3aaa473e	0.0012991203
234	0xbc8123d0	-0.015764147
235	0xbd9d2f3d	-0.076750256
236	0xbce62f3e	-0.028098699
237	0x3d8f48a5	0.06996278
238	0x3c83ae80	0.016074419
239	0x3d467f7b	0.04846142
240	0xbdb26569	-0.08710749
241	0x3dac9054	0.08425966
242	0xbcd26e5d	-0.025687391
243	0x3d8f0d2f	0.069849364
244	0x3d34a102	0.04409886
245	0xbd8000e5	-0.062501706
246	0x3bbfb866	0.0058508394
247	0x3c2913a7	0.010319627
248	0x3cf5fbe3	0.030027336
249	0xbdaa8670	-0.08326423
250	0x3d5e8cb1	0.054333393
251	0xbd7c3d97	-0.061582174
252	0x3ba3c37d	0.0049976693
253	0x3c221646	0.009893006
254	0xbd9bb27e	-0.07602404
255	0x3da3978b	0.07987889

actor.6.bias f4 [23]
0	0x3d92d8cc	0.07170257
1	0xbd390b01	-0.04517651
2	0xbd92afc5	-0.07162432
3	0x3cfe336e	0.031030383
4	0x3db13eca	0.08654554
5	0xbcbabeec	-0.022796117
6	0x3c3f1f71	0.011665211
7	0x3d8a26e9	0.06745703
8	0x3dc8e8a7	0.0981
9	0x3cd3a05d	0.025833303
10	0xbcd9e064	-0.026596256
11	0x3d7e18db	0.062035423
12	0xbd64908c	-0.055801913
13	0xbce20026	-0.027587961
14	0x3cf9f28f	0.030511169
15	0x3d38f3af	0.04515427
16	0xbcbec2d1	-0.023286255
17	0xbd3a1a08	-0.04543498
18	0x3cd944af	0.026522009
19	0xbbfe481e	-0.007760062
20	0xbd96957c	-0.07352731
21	0x3d071beb	0.03298561
22	0x3db58fb7	0.08865302
