logs/rsl_rl/booster_t1_velocity/2026-02-13_00-50-21/2026-02-13_00-50-21.onnx (onnx, 839023 bytes, 8 tensors)

actor.0.weight f4 [512, 81]
000000 05 72 aa 3d 1b 3d a3 3d bc e3 61 bc 32 55 d5 3d
       0.08322529 0.07970639 -0.013787206 0.1041664
000010 fb 14 bf bc 83 11 02 3d 07 63 6f bd 9b 93 74 3d
       -0.023325434 0.03175498 -0.05844405 0.05971108
000020 68 6b e2 3d 5f 06 97 bd 27 1d c5 3d 58 85 27 3c
       0.11055642 -0.07374262 0.09624701 0.010224663
000030 c1 c4 8f 3d 52 c7 d5 3c a4 ee 21 3d b5 7c 50 bb
       0.0701995 0.02609602 0.039534226 -0.0031812612
000040 eb db 93 3d 93 96 b7 3c f7 4d 21 bd a6 55 bf 3c
       0.072196804 0.022410667 -0.039380994 0.02335627
000050 11 fd 28 bd d3 3b bc bb 79 70 26 bd 4b 5a a7 3d
       -0.041256968 -0.0057444363 -0.040634606 0.08171519
000060 18 21 ae bd c1 0c 38 bd 83 34 c2 bc 1b db 94 bd
       -0.08502406 -0.044934038 -0.02370668 -0.072683536
000070 63 dd 1e b8 d6 87 cc bd c0 53 c9 3d c2 21 b8 bd
       -3.7876318e-05 -0.09986846 0.09830427 -0.08990814
000080 93 48 aa 3d e5 4b b8 3c f4 11 29 bd 6f 03 87 3d
       0.08314624 0.022497127 -0.041276887 0.06592452
000090 ec c6 67 3c 59 28 ab 3d 2a 7e 91 3c 02 a6 0b bd
       0.014146548 0.08357305 0.017760355 -0.034093864
0000a0 30 65 f8 3c 6b 6b d6 bc dc 4f 19 3d 42 3d cb 3d
       0.030321687 -0.026174268 0.037429675 0.099237934
0000b0 6c 0f 73 3d 23 82 4c bd d2 87 6c 3d 44 4a ef 3c
       0.05934088 -0.049928796 0.057746716 0.029210217
0000c0 08 44 7f 3d 98 78 95 bd 0c bc e9 bd 21 ff 21 bd
       0.06232074 -0.07298392 -0.1141282 -0.03954995
0000d0 30 2a b3 bd 1d cf ce 3d 92 bc 1c 3d da d4 39 3d
       -0.08748281 0.100980975 0.038265772 0.045369007
0000e0 a9 a4 fa 3c f1 4a 8f bb ad 4f a6 3d 68 82 a4 bd
       0.030596094 -0.0043729474 0.08120666 -0.080326855
0000f0 a1 27 6a ba 03 05 81 bd 68 f9 24 3d 3e bf 1d bd
       -0.0008932297 -0.06299784 0.040276915 -0.03851246
000100 cb e2 31 3d b3 81 fb bc 94 88 c1 3d 91 59 86 bd
       0.043429177 -0.030701494 0.09449878 -0.06560052
000110 fc af 8f bd 3b 58 91 bd d8 86 d6 3d bb b7 3c 3d
       -0.07015988 -0.07096907 0.10474938 0.046073657
000120 6e ee f1 3d 93 ad cb bd 50 ca e8 bd 74 5d ab bd
       0.11813055 -0.09945216 -0.11366713 -0.08367434
000130 9b 0e 82 bd 94 d5 50 3d d5 9c 3b 3d 8f 8f af 3d
       -0.06350442 0.050984934 0.045803864 0.085723035
000140 35 f4 42 bd 23 7e a2 bd 6c f4 80 3d c0 17 31 bd
       -0.047596175 -0.07934215 0.0629662 -0.04323554
000150 fa 39 92 3d 7e 90 cd bc 43 b0 87 3d 26 2e b5 bd
       0.071399644 -0.025093313 0.06625416 -0.08846693
000160 ab fb 49 bd 0b d5 0b 3d 00 81 b7 3c f7 4d e3 bc
       -0.049312275 0.03413872 0.02240038 -0.027747137
000170 54 cd 8a 3d 56 3a 97 3d 43 11 9f bd 65 96 64 bd
       0.067774445 0.073841736 -0.07766964 -0.05580749
000180 4c c2 cb 3d f6 17 30 bd 2c 6a 14 bd b1 b4 d8 bd
       0.099491686 -0.0429916 -0.036234066 -0.10581339
000190 08 9a 80 bd 87 b2 c7 3c 8c 91 51 bc 04 5e a5 bd
       -0.06279379 0.02437712 -0.012791049 -0.08074573
0001a0 b9 fc 38 3c 8d a9 ac bd 57 76 d1 bd 24 74 71 bd
       0.0112907225 -0.08430777 -0.1022765 -0.05894865
0001b0 e8 f8 dc bd 64 a9 88 bd 0a e7 ea 3d 02 d5 a3 3c
       -0.107896626 -0.06672934 0.114698485 0.019999031
0001c0 d5 a3 22 3d 31 3f d4 bd 82 0a 91 bd 83 57 38 bd
       0.039707024 -0.10363615 -0.07082082 -0.045005333
0001d0 e6 c1 a1 3c ce 74 bb bd d7 0e 46 bd 40 f9 76 bd
       0.019745778 -0.09153138 -0.048353996 -0.060296297
0001e0 fa ce 20 bc 71 bc 04 bd 93 84 8f 3b 3f 7f 9f bd
       -0.009814972 -0.032406274 0.0043798178 -0.07787942
0001f0 bb 9d 9f bd 46 20 88 bd 39 df 0f bd 60 b3 ab bd
       -0.077937566 -0.06646781 -0.03512499 -0.083838224
000200 4f ff d8 3d c5 46 9f bc 7a 10 cc 3d 93 8a f2 3c
       0.10595571 -0.019442925 0.0996408 0.029607093
000210 40 2c b1 bd 8d 6c 97 3d f3 37 06 bd e4 1b 24 bd
       -0.08651018 0.07393751 -0.0327682 -0.04006566
000220 65 c1 ca bd f2 28 e0 bd 5a a5 03 3d 62 94 ff bc
       -0.09900168 -0.1094531 0.032140113 -0.031198684
000230 8f a9 3b 3d b4 ec bf bd dd e7 b3 3d 68 1f a9 bd
       0.045816 -0.093713194 0.08784459 -0.082579434
000240 e3 6a ed bb 6d a2 1b 3d 85 16 6c 3d d4 20 a5 3d
       -0.007245408 0.0379967 0.057638664 0.08062902
000250 e0 8d d4 3d c6 86 b9 bd f4 f2 e1 3c 41 f2 4a bd
       0.10378623 -0.09058909 0.02758167 -0.049547438
000260 b9 db de bb 9f 4e a5 bd e8 7a b1 3d 7b 3f 9b bd
       -0.0068010953 -0.080716364 0.08666021 -0.07580467
000270 d5 3f 63 3d 71 0e 13 3d ed 39 2e 3d 79 b9 3c bd
       0.055480797 0.035902444 0.04253571 -0.046075318
000280 e3 d1 c0 3d 53 e3 b4 3c 6c c0 37 3c bf 4b cf bd
       0.09415033 0.022081053 0.011215311 -0.10121869
000290 e6 77 4c 3d 38 da 86 bc 60 1d 67 bd b7 72 c0 3d
       0.04991903 -0.016461477 -0.0564245 0.0939688
0002a0 78 40 2e 3c 5f 54 8d bd ac 16 4a bd 91 a9 26 bb
       0.010635488 -0.06900858 -0.049338028 -0.002543066
0002b0 75 43 68 3d 51 36 24 bd c1 b8 91 bd 0b 82 f7 bc
       0.056704957 -0.040090863 -0.07115317 -0.030213377
0002c0 24 2e be bd cb 2a 39 3d b9 20 91 3d e9 f1 d9 bd
       -0.092861444 0.045206826 0.070863195 -0.10641844
0002d0 6a fe 0c 3d 40 82 66 3d 05 c9 02 3d c3 85 fa bc
       0.034422316 0.05627656 0.03192999 -0.03058136
0002e0 f3 de 96 3d 2c 67 8b 3d 1c 27 2d 3d 71 2e 34 bc
       0.07366743 0.06806788 0.042273626 -0.010997401
0002f0 28 4a 89 bc 86 4a 03 3a a5 8a 9c bc 57 1e 9d bc
       -0.016758993 0.0005008358 -0.01910908 -0.019179506
000300 b6 1d 94 3d ad 20 d1 3d d4 8d 95 bc 16 bc 94 bc
       0.072322294 0.102113105 -0.018256105 -0.018156093
000310 fb 37 0c ba 85 0d 76 3a 56 0b e7 3c a5 ea 94 3c
       -0.0005348918 0.000938617 0.028203648 0.018178293
000320 67 b0 c1 bd 4a 6a 40 bd 73 b1 b3 3d ca c3 32 3d
       -0.09457474 -0.046976365 0.0877408 0.04364375
000330 f7 81 8a bb e9 11 93 bd a8 4c 8f bd 11 98 db bd
       -0.004226919 -0.071811505 -0.06997043 -0.10722364
000340 a8 79 22 bd 5d da 50 3d 2f 33 93 3d 4c fb 73 3d
       -0.0396668 0.050989497 0.07187497 0.059565827
000350 61 a1 d4 bd 56 86 80 bd 18 6f db bc 24 6a ef 3d
       -0.10382343 -0.062756225 -0.026786372 0.116901666
000360 7f 43 cd 3c 38 81 0f bd 31 cf 38 3d b9 a0 42 bd
       0.025056599 -0.035035342 0.045119468 -0.04751656
000370 1a b1 99 bd 83 6a af 3d 4d ff 87 bd 3d 62 19 bc
       -0.075044826 0.085652374 -0.06640492 -0.009361801
000380 6e ec e2 bd 9a 11 89 3d de 1d be 3d 67 49 16 3d
       -0.11080252 0.0669281 0.092830405 0.036691096
000390 6c 24 99 bd 52 b2 cb bd 2a 5a bb bd 0c 12 af 3d
       -0.0747765 -0.09946121 -0.09148057 0.08548364
0003a0 92 f1 64 3d 72 3a da 3d 43 1b 91 3d 2d ef 9c 3c
       0.055894442 0.10655679 0.07085278 0.019157017
0003b0 85 19 a3 bb 74 87 a7 bd 27 dd b8 bd e1 70 ba bd
       -0.0049774074 -0.081801325 -0.090265565 -0.09103561
0003c0 98 69 4f 3d 73 d9 5c bd 3e 2d b2 bc bc f4 7e bd
       0.05063781 -0.053918313 -0.021750089 -0.062245116
0003d0 39 b5 c9 bc c3 0b 9a bd 9f de 9f bd 48 f3 07 3d
       -0.024622547 -0.075217746 -0.078061335 0.033190995
0003e0 f1 ce 02 bd 3e a4 83 3d b3 71 05 bd 63 df b0 bd
       -0.031935636 0.06427811 -0.032579135 -0.08636358
0003f0 46 6d 6b bc 1d d0 5d bd d6 bf 2e bd 5e a8 ef bd
       -0.014369315 -0.05415355 -0.042663418 -0.11702035

actor.0.bias f4 [512]
000000 4a f2 8a 3d 0e 84 76 3d 2d 7b d7 bc 47 23 0c 3d
       0.06784494 0.06018453 -0.026303852 0.03421333
000010 00 9d 28 3d 23 67 5b bd a8 8a 15 3c be 67 ca 3d
       0.041165352 -0.053565156 0.0091272965 0.098830685
000020 c4 81 c2 bd 51 e9 c8 3d ca 20 62 bd ed 7f f8 3d
       -0.09497407 0.098101266 -0.05520705 0.12133775
000030 be 6f 16 bc 55 6d 7c 3c 41 c2 c4 3d 7a e5 73 3d
       -0.009181915 0.015406926 0.096073635 0.059545018
000040 da 1e a9 3d a0 36 55 3d 44 10 22 3a 59 9d 77 bc
       0.082578376 0.052054048 0.00061822333 -0.015113198
000050 64 25 8d 3d c8 a0 3f bd 28 4f 38 3d 77 46 64 3d
       0.06891897 -0.046784192 0.044997364 0.055731263
000060 be ad 64 bd f0 b5 17 3d 11 99 34 3b 89 51 f7 bd
       -0.055829756 0.037038743 0.0027557055 -0.120760985
000070 53 df 7a bd 84 92 86 bd 14 ad 84 bc c9 ac ce 3d
       -0.061248135 -0.065709144 -0.016195811 0.1009155
000080 3d e5 9f 3d ab 50 ad bd cf 34 a0 bd 62 3d a6 bc
       0.078073956 -0.08462652 -0.078225724 -0.020292941
000090 9b b1 03 3c 9d 5c 6b bd 71 84 b7 b9 e6 6b 9d 3d
       0.00803795 -0.05746137 -0.00035003157 0.076865956
0000a0 4d a6 1a 3d 39 86 b3 bd fc c9 1f bd 8a 9b 54 3d
       0.037756253 -0.08765835 -0.039010987 0.051906146
0000b0 59 ae 42 3d 12 24 41 bc f5 d6 69 bd b9 6a 10 bc
       0.047529552 -0.011788385 -0.057089765 -0.008814507
0000c0 f7 f0 6e 3c e1 4f 4e 3d 7e 99 40 bd 10 a4 ae bd
       0.014583818 0.050369147 -0.04702138 -0.08527386
0000d0 74 f8 26 bd 5f 45 90 3c fc 2a 93 3b 32 dd 7c 3b
       -0.040764287 0.017611204 0.004491208 0.003858399
0000e0 b8 44 52 bd 99 1d bb 3d 32 9b 71 bd 05 ec 31 3c
       -0.051335067 0.09136505 -0.058985896 0.010859494
0000f0 90 49 cb 3b 4f 4c 64 bc 13 74 0e bd e5 48 8b bb
       0.0062038377 -0.013934209 -0.034778666 -0.004250633
000100 da 41 67 bc a5 01 d3 3d 40 c8 da bd 15 12 84 bd
       -0.014114821 0.10303048 -0.10682726 -0.064487614
000110 c1 d3 c5 bd 32 bc 27 3c 72 c3 02 bd ec 87 aa 3d
       -0.096595295 0.01023774 -0.031924672 0.08326706
000120 f5 b7 4b 3d d4 78 93 ba 61 a3 97 3c 95 df c4 3d
       0.049735982 -0.001125122 0.018510522 0.096129574
000130 b1 de 43 3d 3d 4f 4f 3d c9 77 6f bd c4 0f ac bd
       0.047819797 0.050612677 -0.058463845 -0.084014446
000140 d3 73 3f 3d 3d 18 a1 bd 0f 21 a2 bd e6 7b 8f bd
       0.046741318 -0.07865951 -0.07916462 -0.070060536
000150 21 1d 9f bd f0 cf 07 bd 39 3a ac 3d 88 a4 98 bd
       -0.07769228 -0.03315729 0.084095426 -0.07453257
000160 4a 7f c1 3d 6a c9 9a 3d 02 09 83 3d b9 2a e4 3d
       0.094481066 0.07557948 0.063982025 0.11140961
000170 2a 4e 2b bd a6 a5 44 bd 1e f4 95 bd 36 7c 2a 3d
       -0.04182259 -0.048009537 -0.07321952 0.041622363
000180 fb 3e d8 bc 26 bc 3b 3b 80 70 ae bd 94 5b e5 3d
       -0.026397219 0.002864608 -0.085175514 0.11199108
000190 47 1f 95 b9 c0 9d 8c bc 8e 73 c1 3d 5b 5b fa 3d
       -0.00028442798 -0.017165065 0.094458684 0.12224456
0001a0 45 75 d3 bd c7 34 88 bb c9 96 d3 bd 1e 94 aa bd
       -0.10325102 -0.004156682 -0.10331494 -0.08329032
0001b0 15 5d 39 3c ae b5 06 3d 08 7b 81 bd b7 c1 36 3d
       0.011313696 0.032888107 -0.063222945 0.044618335
0001c0 72 76 91 3c b4 bc c3 3d 6d 2c 42 3d f7 4e a3 3d
       0.017756674 0.09557477 0.04740565 0.07974046
0001d0 70 45 18 3c 00 b6 cb bd 9d 0c 59 bd 1c 23 1f bc
       0.009293899 -0.09946823 -0.052990545 -0.009712961
0001e0 c0 86 be bd e6 ca 93 bd d1 01 9a bd b9 d3 7d 3c
       -0.09303045 -0.07216434 -0.07519878 0.015492373
0001f0 76 93 0c 3d 7b c5 40 bd f8 71 2d bd 3a ea 6f 3d
       0.034320317 -0.047063332 -0.042345017 0.058572985
000200 ad e6 2b bc 7b ff a2 3d c5 15 e0 3d f9 26 af 3c
       -0.010492009 0.07958885 0.10941652 0.021380888
000210 38 9a 83 3d 66 e3 a9 bd f8 5e 8b bd cd 38 eb bc
       0.06425899 -0.08295326 -0.06805223 -0.028713608
000220 6e 4c 6c 3d 51 0a 72 bd a4 dd 98 3c ac df 64 3c
       0.057690077 -0.05909187 0.018660374 0.013969343
000230 d4 2c b0 bc 0c 63 ae bd 2f 58 59 3d 78 30 e3 3c
       -0.02150575 -0.085149854 0.053062614 0.027733073
000240 b3 40 d7 bc 53 61 d9 bd 21 1a 8c b8 31 6d 0b 3b
       -0.026275968 -0.10614266 -6.680587e-05 0.00212748
000250 0c 76 fc bb 5a 27 03 3c 2e f1 dc bd 26 e2 3a bc
       -0.007704502 0.008004988 -0.10788189 -0.011406457
000260 44 2c 0e 3d a1 3d 1f 3a 33 34 b6 3c 83 52 78 3b
       0.034710184 0.0006074552 0.022241687 0.0037890978
000270 3b 62 c5 b7 8c a1 ca 3d 63 62 fa 3b f6 f5 d9 3d
       -2.3529972e-05 0.09894094 0.007641123 0.106426165
000280 10 cc c9 3c 96 93 e9 3c 93 f7 6b bd ce c3 3d 3d
       0.024633437 0.028512757 -0.057609152 0.046329312
000290 94 18 91 3d 13 35 d0 3d f2 0c e3 3c 46 ff a6 bd
       0.07084766 0.10166373 0.027716134 -0.08154158
0002a0 b4 dd a6 3d 9b 9a ea 3d d1 92 a0 3d 8f 24 c4 bc
       0.08147755 0.1145527 0.07840503 -0.023943214
0002b0 06 d3 b6 3c b5 26 d5 3d 01 bc 98 3d 70 40 df bd
       0.02231742 0.104077734 0.07457734 -0.10900962
0002c0 03 60 53 bc 28 8c 98 bd cf ad 3c bc b6 a8 a1 bd
       -0.012901309 -0.07448608 -0.011516049 -0.07893507
0002d0 66 b0 d1 ba 5b 97 c6 bd e0 6b a2 bd 42 1c 9b 3a
       -0.0015998005 -0.096968375 -0.07930732 0.0011833983
0002e0 10 cd 53 3d 4f c1 88 bc 39 37 f3 bc 61 7d c1 3d
       0.051709235 -0.01669374 -0.029689418 0.09447742
0002f0 52 96 a5 3c 10 0f 80 bd 9d 2a 0e bd a2 ed 7b 3d
       0.02021328 -0.06252873 -0.034708608 0.06150592
000300 b8 41 80 3c 49 f4 e4 3b a6 78 d5 3b 9d 26 b1 bc
       0.015656337 0.006987129 0.0065146266 -0.021624858
000310 07 ca dd bc aa 99 bf 3d 23 c4 be 3d c3 68 c5 3c
       -0.027073873 0.09355481 0.09314754 0.024097806
000320 7e 22 fc 3c 3c 42 90 bb ce 12 c7 bd 0d 85 50 bd
       0.030778166 -0.004402427 -0.097203836 -0.050908137
000330 48 fb 55 3d 47 e2 b5 3c 45 e2 96 3c 72 cc 98 bd
       0.052241594 0.022202624 0.01841844 -0.0746087
000340 87 64 59 3d 9e 9a e2 3d eb bf be 3c 3b dd ba 3c
       0.053074386 0.11064647 0.023284873 0.022810569
000350 f3 38 d4 3d fe 30 a6 3c 02 46 68 bd 7f 5a d0 bd
       0.10362425 0.020287033 -0.05670739 -0.10173511
000360 68 c9 28 bd dc 60 21 bc 5f c0 a3 3d d4 01 44 bd
       -0.0412077 -0.009849753 0.07995676 -0.047853306
000370 63 b5 da 3c 45 38 42 3d c7 5f 24 bc 4a 52 a0 bd
       0.02669782 0.047416944 -0.010032601 -0.078281954
000380 e9 17 a3 bc 4a be ce bd 2f 66 0a bd 3b b1 d6 3d
       -0.019908862 -0.100948885 -0.033788856 0.10483023
000390 ee e9 33 3b 84 38 23 3d 00 6e cb bc 01 83 29 bd
       0.0027452665 0.03984882 -0.024832726 -0.0413847
0003a0 34 bc 7f bc 5b 6b e8 3d e2 a6 50 bd e6 9c e6 3b
       -0.015608836 0.113486014 -0.0509404 0.0070377467
0003b0 f5 82 a8 bd 4e d7 35 3b a0 05 14 3b c3 bc 1c bd
       -0.08228103 0.002774674 0.002258636 -0.038265955
0003c0 d6 08 f2 3d 0d 62 6b 3c 6a 0d 0c bd 99 14 1d bd
       0.118180916 0.014366639 -0.03419248 -0.03834972
0003d0 77 f5 ad 3d f3 44 e7 3c b0 b8 67 bd af 6c d0 3d
       0.08494084 0.02823112 -0.056572616 0.1017698
0003e0 12 8b 8b bd 4c 56 5b 3d 97 02 d4 bc 08 2b 1d bc
       -0.06813635 0.053549096 -0.025880141 -0.009592779
0003f0 c9 4c 7b 3d 94 ea f0 bc a2 36 f6 3c d6 da 2e bc
       0.061352525 -0.02940873 0.030055348 -0.010672292

actor.2.weight f4 [256, 512]
000000 e5 8e 59 bc 17 63 af bb 34 84 6e ba 58 d9 3b 3c
       -0.013278698 -0.0053523886 -0.00090986793 0.011465393
000010 3e 14 a1 3b f7 2b 00 3c 46 ac 84 3c 24 cb 67 3c
       0.004915743 0.007822982 0.016195428 0.014147554
000020 f4 0b 0b 3d 42 c0 93 bc d9 4c 6b bc a1 5a b8 ba
       0.033946946 -0.018036012 -0.014361584 -0.0014065095
000030 a6 98 65 bc b7 f0 d4 bc 60 67 af 3c 84 ac 19 bd
       -0.014013445 -0.025993688 0.021411598 -0.03751804
000040 d0 6e 2b 3c bd ac 6e 3c 68 ef dc bc cc ef c7 3c
       0.0104634315 0.014567551 -0.026969627 0.024406336
000050 62 43 2e 3d cc 2d 92 bc e0 75 91 3c e5 58 ba 3c
       0.04254473 -0.017844103 0.017756402 0.022747466
000060 c3 b1 1c bd 73 83 2d bd 6a 12 04 bd 32 1b 04 3d
       -0.038255464 -0.042361688 -0.032244124 0.032252498
000070 84 cc 66 bb fa 61 d2 3c e8 cf f2 bc a7 a8 6e bc
       -0.0035217116 0.025681484 -0.029640153 -0.014566577
000080 a4 30 32 bd 72 45 43 3d 88 88 f1 bc 7b ff ac 3c
       -0.04350342 0.04767365 -0.029484048 0.021117916
000090 51 8d 28 bd c6 07 46 bb 4d d7 09 bd 8d 04 52 bc
       -0.041150395 -0.0030217036 -0.033652592 -0.012818468
0000a0 40 5d 08 bc c3 04 b1 3c 2c 3e 22 bc 5c 85 0b 3d
       -0.008323014 0.021608716 -0.009902518 0.03406273
0000b0 37 58 87 bc bc 58 40 3c 83 40 be 3c c3 d1 b0 bc
       -0.016521556 0.011739906 0.023224121 -0.021584397
0000c0 fe 7d 52 bb 26 cd 1e 3d af 4f 06 bb 18 67 bb 3b
       -0.0032118554 0.038769864 -0.0020494272 0.005719077
0000d0 99 23 ab 3c 47 b9 50 bd e2 0c 80 3b ee 98 56 bb
       0.020890998 -0.050957944 0.0039077858 -0.0032744962
0000e0 ed f0 2d bc 02 9c 18 bd f3 4b 2a 3b b5 6b 03 3d
       -0.010616523 -0.037258156 0.002598521 0.03208514
0000f0 c3 04 1f bd 6c 86 8d 39 5a b5 27 bd db bb dd 3c
       -0.0388229 0.00026993768 -0.040944435 0.027067116
000100 bc e4 6f 3b 70 0a c9 3c 83 52 dd 3b 8b be 9f bc
       0.0036604842 0.02454111 0.006754221 -0.019500038
000110 e1 e2 5c bc a8 ce 47 3b a2 47 91 3c 69 a9 f2 3c
       -0.0134818265 0.0030488167 0.017734352 0.029621797
000120 29 38 35 bd 6d f2 15 3d 0d 2c 16 3c dc 08 7f bc
       -0.04424301 0.03660815 0.009165776 -0.015566077
000130 67 39 00 bd 92 6c 61 bc d8 4c 28 bd d0 0c df bc
       -0.031304743 -0.013758795 -0.04108891 -0.02722779
000140 fa cb c3 3b 6a 24 28 bd 07 14 c5 3c e9 16 40 3d
       0.0059752436 -0.041050352 0.024057401 0.04689685
000150 5d d1 8f 3c 1e e8 83 3c 84 95 0e 3d f6 b9 c9 bc
       0.017555887 0.016101893 0.034810558 -0.024624806
000160 ef dd 13 bd ea f8 21 3d 45 f5 17 bd e9 05 4c bd
       -0.036100324 0.039544024 -0.03709914 -0.049810324
000170 68 4a 83 bc 16 d4 29 bd be ba f7 3c 2c 5f 5e 3a
       -0.01602669 -0.041462027 0.030240413 0.00084828096
000180 ab b9 34 3d ad e6 6c bc 59 a1 ff bc d0 bd cb bc
       0.04412238 -0.014459294 -0.031204866 -0.024870783
000190 13 0c a8 ba af 53 c4 3c 42 9b 0f 3d d9 d1 0a 3d
       -0.0012820981 0.023965685 0.035060175 0.033891533
0001a0 49 58 6f 3c 35 c3 1e 3d 01 f3 e9 3b 18 73 b7 bc
       0.014608451 0.038760383 0.007139564 -0.022393748
0001b0 86 ae 17 3d df c2 4e 3c 1d 65 d8 3c 1b 77 03 3d
       0.037031673 0.012619703 0.026415402 0.03209601
0001c0 c6 2e 22 3d 6f 4a 05 bd b4 ac fc 3c de 9b c0 bc
       0.039595388 -0.03254169 0.03084407 -0.023511823
0001d0 95 30 1c 3c df ef dc bc 38 bc 14 3d 29 b3 ef bb
       0.009533067 -0.026969848 0.036312312 -0.0073150587
0001e0 e5 76 e3 3c 88 ff 26 3d 9c 2c d3 bb 65 60 68 3c
       0.027766654 0.040771037 -0.006444527 0.0141831385
0001f0 b0 20 02 bc 97 55 e9 3c df 02 34 bd 8e 6a e8 ba
       -0.007942364 0.028483195 -0.04394805 -0.0017731951
000200 c3 3e ce 3c fe 28 28 bd 3c 0c 40 bc 51 ef 14 bc
       0.025176411 -0.04105472 -0.011721667 -0.009090261
000210 f9 e1 2c 3c b2 e5 a1 3b b2 b2 ef 3c c7 9a e3 bc
       0.010551923 0.004940712 0.029260013 -0.027783765
000220 5f e2 04 bd d3 ea 8f 3c 5f 07 6e 3b fd a9 c4 3c
       -0.032442447 0.017568028 0.0036320311 0.024006838
000230 99 bb 67 bc 17 23 2d 3d 24 d2 08 bd c2 1b 1f bd
       -0.014143848 0.042269792 -0.03340353 -0.03884483
000240 6c af b0 bc 71 82 26 bc 58 d9 2d 3b c1 83 1c 3b
       -0.021568023 -0.010162936 0.0026527252 0.0023882242
000250 a1 32 23 3d 13 81 a1 3c 3a 1a 1a bd 69 99 28 bd
       0.039843205 0.019714868 -0.037622668 -0.04116193
000260 84 b0 05 3d f5 a8 e6 3c 51 59 fb 3b f3 f1 f3 3b
       0.03263904 0.028156737 0.0076705595 0.007444614
000270 5d 81 1c bd b0 9a 36 bd 1b a8 c9 3c 8f 9e e2 3b
       -0.038209308 -0.044581115 0.024616292 0.0069158743
000280 c3 ac 03 3d 9a 71 bc 3c 81 91 b1 3a 94 30 fa 3c
       0.03214718 0.023003388 0.0013547392 0.030540742
000290 ac a3 af bc 54 8a 7d bb 85 cc 4f 3d 91 99 d4 3b
       -0.02144035 -0.0038687186 0.050732154 0.006488033
0002a0 1b 76 ec 3c bd 4b 0d 3d 61 b2 24 3c c7 77 26 3c
       0.02886491 0.034496058 0.0100522945 0.010160393
0002b0 79 71 c8 3b db 2d a9 3b 3f 26 e9 3c 01 e7 c7 3c
       0.0061170426 0.005162937 0.02846062 0.024402143
0002c0 9e 72 b8 3c f7 8e 17 bd 00 4b 05 3c 65 3a 84 bb
       0.022515591 -0.037001576 0.008135557 -0.0040352815
0002d0 67 c6 7e bc 2c 97 0b b9 a2 29 8b 3c 88 3f 03 bc
       -0.0155502325 -0.00013312389 0.016987626 -0.0080107525
0002e0 b9 36 88 bb 10 4f 0c bd ad 7a 12 3c d0 d0 ce 3c
       -0.004156914 -0.034255087 0.008940381 0.025246054
0002f0 02 69 f0 38 5f ef b8 3c bb 33 ce 3c 20 6a 3d b9
       0.00011463651 0.022575079 0.025171151 -0.00018063979
000300 06 e6 82 bc 77 c7 da bc 46 41 94 3b f7 d1 bf 3c
       -0.015978824 -0.02670644 0.0045243828 0.023415549
000310 8c 46 d4 3c de 72 61 bb 8e 17 87 3c dc ba 22 bd
       0.025912546 -0.0034400742 0.016490724 -0.039728984
000320 a3 c7 d5 bc 75 32 27 bd 65 63 f3 bc c6 87 9f 3c
       -0.02609617 -0.040819604 -0.029710481 0.019473922
000330 6f 89 40 bc d3 f6 df bb 23 a9 0f 3b 65 82 fc bb
       -0.011751517 -0.0068348437 0.0021920882 -0.007705974
000340 9b 17 be bc d0 d5 57 3c b2 1b 66 3c 7c 3a 42 3c
       -0.023204615 0.0131735355 0.014044689 0.011854764
000350 2e 50 3b bc bd 0e ca bc c1 69 c6 bc 35 48 6a bb
       -0.011432691 -0.02466523 -0.02422035 -0.0035748605
000360 fa ff a9 3c 21 5c cb 3c a7 a7 36 3d b2 d8 a2 3c
       0.020751942 0.024824204 0.04459348 0.019878719
000370 96 a2 0f bd de 2e d6 bc f1 c7 8f bb 2f 13 37 bc
       -0.035067163 -0.026145395 -0.0043878485 -0.011174007
000380 4c d7 0b 3d 98 72 9a bc b9 57 44 3c ed 88 c6 bb
       0.03414087 -0.01885347 0.011983805 -0.0060588033
000390 43 a7 13 3d db 59 8f bb a8 c8 b5 3b f9 82 de 3b
       0.036048185 -0.0043747253 0.0055476017 0.0067905155
0003a0 9d 4d 2e bc e2 34 60 3b 79 99 3c bd 96 e5 3b 3c
       -0.010638622 0.0034211208 -0.0460448 0.011468312
0003b0 04 bf 99 3c 54 fb 24 bd 95 a5 3f 3d 8b 30 31 3c
       0.018767841 -0.040278748 0.04678877 0.010814796
0003c0 78 ae a0 bb fe dc 37 bc 7e 07 12 3d bc b5 d0 3c
       -0.004903611 -0.011222122 0.035651676 0.025477283
0003d0 e8 ee e9 3b 72 8d e2 3c d9 84 b3 3b 59 e3 ab bc
       0.0071390755 0.027655337 0.005478483 -0.020982431
0003e0 ee d3 ad bc 53 af 04 3c 21 cc 57 bc 07 11 01 bd
       -0.02121922 0.008098441 -0.013171227 -0.03151038
0003f0 2d e8 24 bd 76 6f 02 bd 22 9d f0 bc 01 37 19 bb
       -0.040260483 -0.03184458 -0.029371802 -0.0023378732

actor.2.bias f4 [256]
000000 73 17 0b 3c cf 41 10 bd 11 7e 9b 3c c9 9f 4e bd
       0.008489477 -0.03521901 0.018981012 -0.05044535
000010 19 be ea bc d5 a5 8f bb 0a 7e ff bc 95 f5 71 3c
       -0.028655099 -0.0043837824 -0.03118803 0.014768024
000020 f3 1b 36 3c 18 c8 e0 39 40 67 13 3d 00 c1 78 3d
       0.011115062 0.0004287369 0.03598714 0.060730934
000030 28 dc 21 3c 33 d7 f8 3c a2 f3 c0 bc f5 0d f7 3c
       0.0098791495 0.030376052 -0.023553673 0.030158022
000040 84 eb ed 3c e6 44 25 bd 7b 1e 08 3c f3 5c 07 bd
       0.029042967 -0.04034891 0.008308048 -0.033047628
000050 2a 7e 7e bd 34 4e 92 3c d7 1f 0b 3d 1a 68 95 3c
       -0.06213204 0.017859556 0.03396591 0.018238116
000060 bd ba e6 bc 59 9e 09 bd 93 de f7 3c 27 d5 1b 3c
       -0.028165216 -0.033598278 0.030257499 0.009511269
000070 0a f6 89 3c cb 9c 32 bd 4e 68 61 bc ca 83 b1 bc
       0.016840953 -0.04360656 -0.013757778 -0.021669287
000080 db 8a 26 3c 83 9f e6 3c 02 47 2c bd c5 5c e4 bc
       0.010164942 0.028152233 -0.042059906 -0.027876267
000090 af 54 30 bd 07 4e bc bc 25 b7 93 bb 35 38 50 bd
       -0.04304951 -0.022986425 -0.0045079165 -0.050834853
0000a0 76 82 25 3c 31 68 b5 3b 03 c9 be 3c fa 69 d0 3c
       0.010101905 0.005536102 0.02328921 0.025441159
0000b0 e8 c6 01 3d f2 ef 54 3d 4b 10 7e 3b c0 38 7d 3c
       0.031683832 0.051986642 0.0038767036 0.015455425
0000c0 e9 6d 02 3d 8e cc 21 bd 21 81 1d ba e3 23 e9 3b
       0.0318431 -0.03950172 -0.00060083164 0.0071148737
0000d0 f3 f8 fe bb 68 56 32 bd ae f7 19 3d e6 fb 04 3d
       -0.007781142 -0.043539435 0.03758972 0.03246679
0000e0 ca 4f b1 3c e5 6b c8 ba 99 2c 52 3b 15 53 40 3b
       0.021644492 -0.0015290944 0.003207004 0.0029346396
0000f0 97 c1 17 3d 10 ca ce 3c 3f c7 42 bd d3 e8 c7 ba
       0.037049856 0.025242835 -0.047553297 -0.0015251882
000100 d6 13 aa 3c bb d6 ff 3b 40 ce 7d 3d cc 35 12 3d
       0.020761412 0.0078075803 0.061964273 0.035695836
000110 cb 8d 1f 3c 95 e0 33 3c be 6f ef 3b 42 28 0e 3c
       0.009738396 0.0109788375 0.007307022 0.00867659
000120 24 0d 42 3d e0 17 a3 3c 67 00 3d 3b cf 93 e3 3c
       0.047375813 0.019908845 0.002883935 0.027780442
000130 85 f0 ba 3a 9d 50 83 3c fe 31 c3 3c 4f 61 50 3b
       0.0014262354 0.01602965 0.02382755 0.0031796282
000140 a3 b7 35 3d 8b 22 03 bd 04 de 68 3d 52 fd d3 bc
       0.044364583 -0.032015365 0.056852356 -0.025877628
000150 de 26 2e 3d ef 92 1f bd 31 9e 9c 3c 2f 67 61 bd
       0.042517535 -0.038958486 0.0191184 -0.055030044
000160 11 d3 27 3d bb 7e 3c bd 86 2f 56 3c 00 d3 f0 bc
       0.040972773 -0.046019297 0.013072854 -0.029397488
000170 54 2a d1 3c f3 b2 39 3d d0 52 dc bc ed b6 a6 bc
       0.025532879 0.045336675 -0.026894957 -0.020350898
000180 68 96 a4 3c f9 1d 04 bd a3 96 36 bc 84 59 ae 3c
       0.02009125 -0.032255147 -0.011144313 0.021282919
000190 01 87 29 bd 3f 86 17 3c d3 43 23 3d 15 93 13 3d
       -0.041388515 0.009248315 0.039859604 0.03602894
0001a0 fa fd c3 3c 4a 61 36 bd 31 0e 38 3d 22 cd f6 bc
       0.023924816 -0.044526376 0.04493541 -0.030127112
0001b0 8c 13 54 3c f5 e3 17 3c 5d 45 24 3c 5c e5 b7 bc
       0.012944113 0.009270658 0.010026303 -0.022448234
0001c0 ae 0b 58 3c 8a 51 f8 ba 5e 75 47 3d 95 9b ae bc
       0.013186378 -0.0018945199 0.048695914 -0.021314422
0001d0 cd 4c b0 3c d2 9c c4 3c 8d a3 13 3d de b7 fc bc
       0.021520996 0.024000559 0.036044646 -0.030849393
0001e0 67 55 59 3b ac f5 25 3c 60 73 03 3c 0a 8b 04 3d
       0.0033162476 0.0101293735 0.008023113 0.03235916
0001f0 00 40 60 39 30 97 84 3c 65 56 a8 b9 a1 66 cf 3c
       0.00021386147 0.016185373 -0.00032107826 0.025317492
000200 f5 25 25 bd fc 4a 95 3b 81 53 e0 3b 9b 07 7d 3c
       -0.0403194 0.004556058 0.006845892 0.015443708
000210 71 18 13 bd ff b9 05 3d 7f f0 13 ba 5f fa 06 3b
       -0.03591198 0.032648083 -0.00056434417 0.002059601
000220 d7 51 d5 bb 62 e2 e2 3c be 64 1e 3d 02 85 f9 bc
       -0.00651 0.027695838 0.038670294 -0.03045893
000230 38 c4 2c 3d 72 77 27 bb b0 a4 cc 3c cc 4f b3 bc
       0.042179316 -0.0025553373 0.024980873 -0.021888636
000240 ef b3 00 3d 11 40 22 3c a8 80 56 3a a1 40 28 3d
       0.031421598 0.00990297 0.00081826234 0.04107726
000250 e8 37 0b 3d 49 c7 5b bd 56 c8 ad 3c 76 b7 14 bb
       0.033988863 -0.05365685 0.021213692 -0.002269236
000260 fe 0e 02 3c 4b 40 7e b8 ea 59 37 bb 9f 13 8b bc
       0.007938145 -6.0618197e-05 -0.0027977177 -0.01697713
000270 3d ed 09 bc 99 67 f5 bc 96 63 00 3d 65 fc 31 3d
       -0.008418378 -0.029956626 0.031344973 0.043453593
000280 55 76 6e bc 33 6b d2 bc 27 04 d7 bc e3 67 b7 bc
       -0.01455458 -0.025685882 -0.026247097 -0.022388404
000290 58 b8 6a 3c e0 43 04 bd b9 50 c3 bc 27 1f b3 3c
       0.014326178 -0.032291293 -0.023842202 0.02186544
0002a0 7d b4 ea bb 0d c5 c8 bb 7d 9a 8f bc bd 7c 50 3c
       -0.007162629 -0.006127006 -0.01752972 0.012725052
0002b0 32 89 39 3d 2b a8 0c 3d db 8e 52 bc cf 5d f5 3b
       0.045296855 0.034340065 -0.012851442 0.0074879895
0002c0 63 ac 4a 3c 83 2c b3 bb ac 71 3c 3d cd a5 9a 3b
       0.012370202 -0.0054679527 0.046006843 0.004719472
0002d0 ec e8 2e 3c be 76 c0 3c 86 e6 88 39 fa 7e 55 bd
       0.01067565 0.02349412 0.00026111695 -0.052123047
0002e0 4c d5 38 3d 7a 6a a0 3b f8 00 dc bb f2 66 c1 3b
       0.04512529 0.0048955055 -0.0067139827 0.0059021646
0002f0 39 cd 9a ba 1b 74 8c bc 69 7b 4f bd 07 f7 89 3b
       -0.0011810429 -0.017145207 -0.050654802 0.004210356
000300 b6 33 95 3c 53 95 de bc a2 02 bc ba a6 9e f1 bc
       0.018213134 -0.027170813 -0.0014344046 -0.029494595
000310 e0 70 0d 3d 29 04 21 3d 39 fc 7c 3d b6 7f 44 3c
       0.034531474 0.039310608 0.061763976 0.011993339
000320 cc 21 ca 3c 2d f8 21 bd 1f a5 b6 3c 42 8f ca bc
       0.024674319 -0.03954332 0.022295533 -0.024726514
000330 31 70 e1 bb de 19 c8 3c 34 b5 db 3c 1e 09 b7 3c
       -0.0068798293 0.024426397 0.026819803 0.022343215
000340 e8 1b 3c bd cc e2 2c bd 73 07 41 bc 1b b1 3b bd
       -0.04592505 -0.042208478 -0.011781561 -0.045823198
000350 4f 5c d0 3c 03 b3 60 3c 24 0b 05 3d 43 8d ed 3b
       0.025434641 0.013714555 0.032481328 0.0072495057
000360 b2 49 aa bc b0 ff 58 3b 6b ee e5 bc 51 9e e6 3c
       -0.020787094 0.0033111386 -0.028067788 0.028151663
000370 d9 b5 a3 bc 82 c0 21 3c e7 e4 81 3c cd 0e fd 3b
       -0.019984173 0.009872558 0.01585622 0.0077227117
000380 27 2c ad 39 84 e6 29 3d ad 2f 05 3d 37 d9 b9 3a
       0.00033030027 0.041479602 0.03251617 0.0014179115
000390 10 5b ee bc 58 21 a6 bc 87 65 9f bc f4 51 c2 bc
       -0.029096156 -0.020279571 -0.019457592 -0.023720719
0003a0 a6 27 06 3d 74 4f 4b bc 81 c7 d4 3c d5 e3 cf 3c
       0.032752655 -0.01240908 0.025974037 0.025377193
0003b0 bc 09 d2 bc 2c 1a ff ba b3 e8 dc 3c 2a 7c bb bc
       -0.025639407 -0.0019462756 0.026966428 -0.022886354
0003c0 67 1c f4 3c 57 c8 21 bd 92 d3 2f bd 7b 82 d2 3c
       0.0297987 -0.0394977 -0.04292638 0.025696984
0003d0 fe f1 b9 bc 7b 7d eb 3c 67 7f 53 bc 07 5b e3 bc
       -0.022698399 0.028746357 -0.012908793 -0.027753366
0003e0 0c 7e e7 3c a7 b9 1b bd fa b3 63 3d d0 01 09 bd
       0.028258346 -0.03801885 0.05559156 -0.033448994
0003f0 f2 df 07 3d 97 57 3c bd 09 2a 54 3d 7f 0b 4b 3c
       0.033172555 -0.04598197 0.0517979 0.012392878

actor.4.weight f4 [128, 256]
000000 a0 32 eb bc 49 84 bd 3c f5 04 39 3c f4 1f 4d 3c
       -0.028710663 0.023134368 0.011292686 0.012519825
000010 ca 1c 5b bd d5 7d 69 bd f1 19 5e 3d ac 65 62 bc
       -0.053494252 -0.05700477 0.05422396 -0.013818186
000020 fc 17 b9 3c 6e 45 5f 3d 8e 7f 5b bd 46 92 0f 3d
       0.022594444 0.054509573 -0.053588443 0.035051607
000030 b8 28 4f bd 41 9c 6e bd 89 c6 94 bc 4e d6 cd bc
       -0.05057594 -0.058254484 -0.018161075 -0.025126603
000040 30 4f b7 ba 4b b0 27 bb 02 91 d0 3c 08 ed 1e 3d
       -0.0013985392 -0.0025587257 0.02545977 0.03880027
000050 fa e8 66 3d 21 cd 70 bc db fe dd 3c 40 ec ac 3c
       0.056374528 -0.014697344 0.027099064 0.021108747
000060 2f b6 3f bd 37 b6 8d 3c f8 31 89 3c 1f 63 0d bd
       -0.046804603 0.0172988 0.01674746 -0.034518357
000070 e7 ee bb bb b2 ad 1b 3d 53 f9 8b bc 12 41 31 bc
       -0.0057352665 0.038007446 -0.01708666 -0.010818737
000080 30 81 fc 3b 53 25 1c 3d 42 68 96 bb 2a da 26 bd
       0.00770583 0.038121533 -0.004590065 -0.0407354
000090 ee cd 2e bd a9 ae 44 3a 3d 29 46 bd a9 67 49 3d
       -0.04267686 0.0007502833 -0.04837917 0.049171124
0000a0 81 f3 14 bc 11 45 8b 3b a1 d8 f1 bb b1 5f 37 3b
       -0.009091259 0.0042501767 -0.0073805605 0.002798062
0000b0 c4 d0 66 3d cb fc 88 bd 6c 8f 35 bd 75 ba 5c bd
       0.05635144 -0.066888414 -0.04432623 -0.053888757
0000c0 a1 7c fa bb be 05 06 bd af 0e 4a bd f6 c8 05 bd
       -0.0076442515 -0.03272032 -0.04933041 -0.032662354
0000d0 a4 c3 02 bb fe 45 58 bd d6 8b 2a bd e9 84 1e bd
       -0.0019953037 -0.052801125 -0.041637264 -0.03870097
0000e0 ae bc 67 3d 9d 5c c0 3b 77 85 51 bd 28 03 e0 bc
       0.056576423 0.0058704154 -0.051152673 -0.027345255
0000f0 72 06 4c 3b 3f a3 12 b9 ed 02 f7 3c e0 78 ea bc
       0.0031131771 -0.00013984459 0.030152762 -0.02862209
000100 7c b2 32 3d 05 9f 11 3d fb 45 a6 3c af dc 44 3c
       0.043627247 0.035552043 0.020297041 0.012015506
000110 62 ea 3c 3c d6 08 8d bc c7 43 bb 3c 8b a8 8d 3c
       0.011530491 -0.017216127 0.022859467 0.017292282
000120 9b 9e 25 3d a7 16 05 bd e1 59 1d b7 06 58 43 bd
       0.04043446 -0.032492306 -9.378856e-06 -0.047691368
000130 8b 69 17 bd 7c 4e 2d 3d 03 4f 70 3c 1b 4a 7c 3d
       -0.036965888 0.042311177 0.014667275 0.06159411
000140 76 bd 82 bd 66 c4 7b 3c 42 f7 03 3c 57 50 3c bb
       -0.06383793 0.015366649 0.008054556 -0.002873441
000150 51 95 84 3d 47 19 81 ba 81 a7 a8 3a 24 38 6c 3d
       0.06473792 -0.0009849452 0.0012867303 0.057670727
000160 62 25 d8 bc e6 c7 83 3d 58 7b ea 3c e5 e2 30 bd
       -0.026385013 0.06434612 0.028623268 -0.043185133
000170 45 77 ca 3b 9a fd 1e bc 5c ee 3e 3d e8 75 13 3d
       0.006178769 -0.009704018 0.046614036 0.036001116
000180 08 ff 66 3d d9 61 0a 3d 6d c5 56 3d 7f b1 67 3d
       0.05639556 0.03378472 0.052434374 0.056565758
000190 ad 5b 56 3d 91 8b ef bb 70 32 0c bd 5c a2 97 bc
       0.052333523 -0.007310339 -0.03422779 -0.018510036
0001a0 8a 28 0e bd a9 b2 05 bc a4 ea 40 bd 02 ff 4c 3d
       -0.03470663 -0.008160272 -0.04709877 0.050047882
0001b0 46 0d a3 3c 80 29 82 bd d1 41 c9 3c ed c1 4d bc
       0.01990379 -0.06355572 0.024567517 -0.012558443
0001c0 12 77 2b 3d d4 99 b6 3b 00 b5 4b bd cc d2 49 bd
       0.0418616 0.005572537 -0.049733162 -0.049273297
0001d0 7d 3c 1d 3c 8e 71 1a bd 4e 47 af 3c 35 8b f8 3c
       0.009596941 -0.03770595 0.021396305 0.030339817
0001e0 74 24 75 3d 61 17 ea 3c 16 14 66 3d dc de 23 bd
       0.059849218 0.028575601 0.0561715 -0.040007457
0001f0 e0 97 c6 bc c5 aa be bc fb 84 1e 3d c4 56 f1 3b
       -0.024242342 -0.023274789 0.03870104 0.0073650796
000200 e5 56 4d 3b 60 98 0a 3c c4 e4 25 ba 8a 22 45 bc
       0.003133231 0.008459181 -0.0006328339 -0.012032161
000210 4f 27 19 3d 3f ac 28 3c 9c f2 37 3d 55 6d 48 bc
       0.037391003 0.010294973 0.044909105 -0.012233098
000220 8f 59 c9 bc d8 a0 65 3d 6e 7e a7 3c 27 b8 63 bd
       -0.024578838 0.056061596 0.020446029 -0.055595543
000230 90 7b c6 3b 05 00 65 3c df 8d 40 3d d1 0f 7a bd
       0.0060572103 0.013977055 0.0470103 -0.06105024
000240 d7 65 26 bb bd 91 38 3d ca 06 2d 3d e2 a1 79 3c
       -0.002539029 0.04506086 0.042242803 0.01523635
000250 6d fb a8 3b 56 57 28 bc ec b7 d7 bc 65 fa 50 bd
       0.0051569254 -0.010274729 -0.026332818 -0.051020045
000260 bb c7 b6 3c 18 f9 43 3d dd 97 a1 bc 63 ce 61 3c
       0.022312036 0.047844976 -0.019725734 0.013782117
000270 88 8a 3a 3d 93 59 f8 3c cc 46 18 bc 10 2b 07 bd
       0.04554227 0.03031615 -0.009294223 -0.033000052
000280 43 b0 a7 bc 21 c8 23 bb fc 59 34 3d 97 51 32 bd
       -0.02046979 -0.0024991112 0.04403113 -0.04353484
000290 e8 ad a8 bc 96 08 aa 3c bd fb 78 bc 53 fd af bc
       -0.020590737 0.020756047 -0.015196738 -0.0214831
0002a0 06 c1 ae bc 8e 09 75 3d 14 57 a6 bc 5b 58 67 bd
       -0.021332275 0.059823565 -0.020305194 -0.056480747
0002b0 59 7d fd 3c 38 3a 50 3d 0c fe 09 bd 2d fb 1f bc
       0.03094356 0.05083677 -0.033689544 -0.009764475
0002c0 f9 50 0e bd e7 ec 59 3c ea 19 00 bd 5f a2 20 bd
       -0.03474519 0.013301111 -0.031274714 -0.03921735
0002d0 6e 4b 59 bd 63 e2 71 bd 5b 97 5e bd ae a6 b8 3c
       -0.05305045 -0.05905379 -0.054343563 0.022540417
0002e0 a3 a9 15 3d 46 e7 47 bd 7d 12 6b 3d 2a b0 88 3c
       0.03653873 -0.048804544 0.05739068 0.016685564
0002f0 c4 44 ca 3c 35 34 33 3d 38 ec 1b bc b5 05 1d 3d
       0.024690993 0.04375096 -0.009516768 0.03833552
000300 44 e6 b9 3c e1 cf 1b bd 46 6e e0 3c 6d 82 52 bd
       0.022692807 -0.038040046 0.027396332 -0.051393915
000310 eb 0d 7d bd d7 78 62 bd 81 98 28 3d 3b 77 09 3c
       -0.06178085 -0.055291023 0.041161064 0.008390243
000320 33 7b 86 3a 7f c2 36 3d 1a 69 06 bd aa ed eb bb
       0.0010260105 0.04461908 -0.032815076 -0.0071999626
000330 f8 dd 5b 3d 1a 13 28 bd 79 c8 50 bd 23 36 54 bd
       0.053678483 -0.04103384 -0.050972436 -0.05180944
000340 00 0b 13 3d 35 f0 08 bc 73 e0 68 3b 64 5e da bc
       0.035899162 -0.008358051 0.0035534173 -0.026656337
000350 ef d4 58 3d 30 5f af bb 4f 27 25 3d 3e 23 3a 3c
       0.052937444 -0.0053519234 0.04032069 0.011360941
000360 8d e4 05 bd d3 e8 26 3d ed 51 89 bc 3f f3 14 3d
       -0.032688666 0.040749382 -0.016762698 0.03636479
000370 e9 b1 f3 3c 7d 0b 15 3a 5f d7 0c 3b ca c4 6b 3d
       0.02974792 0.0005685611 0.0021490676 0.05756072
000380 9e 31 1b bc 76 33 43 3d 3f e3 49 bd 86 0c 0c bd
       -0.009472279 0.0476565 -0.049288984 -0.03419163
000390 f7 7a 0d bd 9c 5a 70 bd db 55 e3 bb 7e a6 79 bb
       -0.034541097 -0.05868016 -0.006937725 -0.0038093622
0003a0 ac 80 29 3d ba f0 53 3c fe 32 50 3d 16 64 2a 3d
       0.041382477 0.012935812 0.05082988 0.041599356
0003b0 f6 45 96 3b 9c e9 c4 bc 2d 62 5c bd fb 86 80 39
       0.0045859767 -0.024037175 -0.053804565 0.0002451463
0003c0 a6 a9 44 bc 7b 93 74 3c 25 1a 20 3a 94 39 a0 bc
       -0.012003338 0.01492774 0.00061074115 -0.019558705
0003d0 ad ff 14 3c 82 54 11 3d 40 69 47 bc 29 13 fe bb
       0.009094161 0.035480984 -0.01217109 -0.007753749
0003e0 ff 1c 48 3d 83 0d a0 3c 19 32 48 3d f3 5a 63 3d
       0.048855778 0.019537693 0.0488759 0.055506658
0003f0 76 fa 5a 3d dd b7 2a bd 24 42 50 3d b7 0c b3 bc
       0.053461514 -0.041679252 0.050844327 -0.021856649

actor.4.bias f4 [128]
000000 a5 2d 13 3d db 6d 42 3d 65 9d 92 3c 79 a6 57 bd
       0.035932202 0.047468048 0.017897317 -0.052648995
000010 2d 63 21 bc c4 2e 84 bc 4c 92 0c bd e9 59 08 bd
       -0.0098503055 -0.01613558 -0.034319207 -0.03328887
000020 63 73 4f bb 69 f7 34 3c 16 d4 77 3d 12 c0 82 3d
       -0.003165447 0.011045315 0.060504995 0.06384291
000030 07 8b bf ba 83 b9 33 3d 5b c3 17 bd 19 b6 1c bc
       -0.0014613577 0.04387809 -0.03705154 -0.0095649
000040 2a 8f 6a bd 46 43 c7 3c 75 fe de 3c a6 3d 52 bd
       -0.05726544 0.02432407 0.027220944 -0.051328324
000050 3a f9 40 3d 61 e5 7a bc fa 61 52 3d cc 7f 35 bd
       0.04711268 -0.015313477 0.05136297 -0.04431133
000060 12 d2 27 3d 19 bf 05 3d b1 5b 23 bb 15 19 98 bb
       0.040971823 0.032652948 -0.0024926479 -0.004641662
000070 27 51 1d bb fa 37 3e 3c 67 01 68 3d 51 2f 91 3c
       -0.002400467 0.011610026 0.056641962 0.017722758
000080 8a 72 8d 3d 2d b2 6f bb 30 73 8c bd c6 e2 23 3b
       0.06906612 -0.0036574707 -0.06857908 0.0025006994
000090 e6 12 a7 b9 d2 c0 b0 3c 97 8a 15 3d a3 c5 12 3d
       -0.00031866803 0.021576319 0.036509123 0.035833012
0000a0 b1 6d 31 3d 86 44 21 3d 21 9c 24 3d 96 5b ba 3b
       0.0433175 0.03937199 0.04018796 0.0056871874
0000b0 3a 8a 0c bd 23 54 3a 3d 9e 3e db bc 1a 54 b9 bc
       -0.03431151 0.045490395 -0.026763257 -0.02262311
0000c0 97 46 a5 b8 eb 2c 7e bb a4 4e 43 bd fb 59 9e bd
       -7.8809615e-05 -0.0038784097 -0.04768242 -0.07732006
0000d0 51 9f 3f 3d 8f 77 0d 3d be 10 d2 bc 67 1b 45 bd
       0.046782795 0.034537848 -0.025642749 -0.048121836
0000e0 a7 fd 4d 3c f1 c7 d5 bc 1c b3 2b bd ce 1c 07 3d
       0.012572682 -0.026096316 -0.04191886 0.032986455
0000f0 54 eb c9 bc 72 64 bf 3c 11 f6 2b bc 66 32 19 bd
       -0.024648346 0.023363326 -0.0104956785 -0.03740158
000100 83 d4 10 bd 38 33 d1 bb a7 ba 4c bc 70 f0 4d 3d
       -0.035358917 -0.0063842796 -0.012495673 0.050278127
000110 b8 7d 69 bd dc 02 28 3c 1f 2f 52 3d 94 30 d0 3c
       -0.05700466 0.010254588 0.05131447 0.025413789
000120 92 95 0c bd 48 b4 8b 3c eb 41 69 bd fc c4 7f bd
       -0.03432233 0.017053738 -0.05694763 -0.06244372
000130 c1 3c ac bc 53 8a ea bc 6a 0e 8d bd 19 08 52 bd
       -0.021025063 -0.028630411 -0.06887515 -0.051277254
000140 5d 88 75 3d fc 15 79 3d dd 96 fd 3c 5d dc 18 bd
       0.0599445 0.06081198 0.030955726 -0.03731953
000150 d4 95 6f bd 31 2a 37 3c c5 da cf bc 8a aa 7c 3d
       -0.058492497 0.011179493 -0.025372872 0.061686076
000160 11 5d 34 bc 45 49 ec 3c e9 3a d6 bc dc fd da 3b
       -0.011008517 0.028843531 -0.026151137 0.0066830944
000170 5c db 13 bc 9e 4e de 3c 5b 0e 27 bc 21 89 0a 3d
       -0.009024467 0.027137097 -0.010196294 0.033822183
000180 89 4f d1 3a d8 33 37 3d 2e 4c 13 3d c9 91 7b bd
       0.0015969138 0.044727176 0.035961322 -0.06141833
000190 69 25 5c 3d 99 d8 56 3d 33 00 d4 bc 51 1f 2c bd
       0.053746615 0.052452657 -0.025879001 -0.042022053
0001a0 fa be 7d 3d 74 60 38 3c b0 a8 04 bd 74 0a ef 3c
       0.061949708 0.011253465 -0.032387435 0.02917979
0001b0 f8 59 76 3c 32 f2 4a bd 90 2a 4d bd c2 b2 90 bc
       0.015036099 -0.04954738 -0.05008942 -0.017663363
0001c0 36 77 65 bd da 51 8d bb dd 22 5b 3c f9 d3 0d bd
       -0.05602189 -0.004312736 0.013375011 -0.03462598
0001d0 c6 fe 6a 3d fc 60 80 bd 26 7c e8 3c 2f a0 cf 3c
       0.057371877 -0.06268498 0.028379511 0.025344936
0001e0 36 2d aa 3c bc e4 83 3c 3d e9 50 bd cb c9 6f bc
       0.020773511 0.01610028 -0.051003683 -0.014635514
0001f0 09 fc 94 bc a9 47 35 bd ec 0a 02 bd 8c 21 fd 3b
       -0.018186586 -0.044257794 -0.031748697 0.0077249464

actor.6.weight f4 [23, 128]
000000 00 cb 63 bd 83 f6 b3 bc b7 77 1b 3b ff 6f 7b 3d
       -0.055613518 -0.021968132 0.0023722479 0.061386105
000010 3e ca 29 3d 10 50 be 3b bd 72 a6 bd 78 ff 86 bd
       0.04145264 0.005807884 -0.08127353 -0.065916955
000020 7c 24 94 bd c7 19 50 3d ad 08 da bc a0 19 a2 3d
       -0.07233521 0.050805833 -0.026615465 0.07915044
000030 cd 3e 52 bd 41 bf 73 bd 5f 8f a6 bc 3c 1b 96 3c
       -0.051329423 -0.059508566 -0.020332037 0.018323533
000040 5a 93 e7 3b 9e 4a 98 3c df 35 a3 bd 0a 26 34 bd
       0.007067126 0.018590268 -0.079692595 -0.04398159
000050 ae e3 5f bd 02 58 f6 bc 5e 24 69 3d 80 df ac 3d
       -0.05466049 -0.030071262 0.056919448 0.08441067
000060 df 7f 4c 3b 16 91 39 bc 09 24 11 bc 67 82 4d bd
       0.0031204147 -0.011326095 -0.008858689 -0.05017319
000070 74 c1 01 bd e3 37 80 bd 77 f3 25 bb b3 4c 9f bd
       -0.031678632 -0.062606595 -0.0025322118 -0.07778301
000080 26 51 05 bc f7 b4 c8 bc 32 3e 3e 3d 1f 7b 64 bd
       -0.008137023 -0.024500353 0.046446033 -0.05578148
000090 01 55 67 3c 5f fc 32 3c e5 e1 31 3d 10 17 31 3d
       0.014119388 0.010924428 0.04342832 0.043234885
0000a0 54 3e 91 bd 5a f0 93 3d c1 14 fa 3b 61 fb c9 3a
       -0.07091966 0.07223578 0.0076318686 0.001541
0000b0 09 e1 1a 3c 48 f8 6e 3d f9 1e 95 bd 24 75 64 3d
       0.009453067 0.05834225 -0.07281298 0.055775777
0000c0 f4 fa 74 3d 49 55 6d bd 4d 71 b0 3d f2 c2 b5 bc
       0.05980964 -0.057942662 0.086153604 -0.022187684
0000d0 c0 42 54 bd e7 9d 19 bc e4 e5 5c bd d3 a3 a8 bb
       -0.05182147 -0.009376026 -0.05393018 -0.0051464825
0000e0 35 b7 bb bd d4 11 1e bd f7 b0 3f 3d de 42 1e bd
       -0.09165803 -0.03859122 0.046799626 -0.03863799
0000f0 20 ba 77 3d 73 3e 9b bd 86 9b 79 3d 68 ef 83 bd
       0.060480237 -0.075802706 0.060939334 -0.064421475
000100 df 6b c6 3d 3d d2 b6 3d 08 cf 32 3d 0f 0e a0 bc
       0.096885435 0.089268185 0.04365447 -0.019537954
000110 20 ac e7 3c 46 2c 56 3d be 75 68 bd 6d 93 bc bc
       0.028280318 0.052288316 -0.056752913 -0.023019517
000120 b5 fa dc 3b 81 83 88 bd 34 01 5e 3c a8 ac 97 3d
       0.006743754 -0.066657074 0.013550092 0.074059784
000130 70 50 6b bd 22 c1 fa 3c 32 45 8e 3d f6 e3 3c 39
       -0.057449758 0.030609671 0.06946792 0.00018013999
000140 e9 a9 bb 3b 2b 98 9c 3d 27 3e 84 bd ea 71 10 bc
       0.005727042 0.07646211 -0.06457167 -0.008816222
000150 86 e1 85 3d da 86 96 3c ec 4a 02 3d e9 48 3a 3d
       0.06537156 0.01837485 0.031809732 0.04547969
000160 52 0c e5 bc 82 cb 40 3d 42 b5 f8 3c a6 fe 1c 3d
       -0.027959976 0.04706908 0.030359868 0.03832879
000170 a3 d1 96 3d 08 6e 37 3d 77 2c a6 bd a0 4d 86 bc
       0.07364204 0.04478267 -0.0811395 -0.016394436
000180 42 e0 7a bd 0a 1b a8 bd bc d4 0f 3d 48 63 80 bd
       -0.061249025 -0.08208282 0.03511499 -0.062689364
000190 be da bb bb c7 7d 0e bd 26 9b 83 3c e9 5e 8e bd
       -0.005732863 -0.03478792 0.016065191 -0.069516964
0001a0 40 63 a0 3d 81 71 93 bb d5 3b f3 3b 8c a3 9c 3d
       0.078314304 -0.0044996147 0.007422904 0.076483816
0001b0 20 42 97 bc 58 ac 3c bd 78 29 95 bd f4 1e 71 3d
       -0.018464148 -0.046062797 -0.072833 0.05886741
0001c0 92 a6 e2 3c 52 25 3b 3d d0 45 a9 3d e5 27 79 bd
       0.027667318 0.04568989 0.08265269 -0.060829062
0001d0 60 c8 85 3c 42 a4 aa 3d 92 71 e7 3c 3a 90 05 bd
       0.016330898 0.08332111 0.028252397 -0.03260825
0001e0 2d 67 84 bd ab d4 54 bd 63 6d 67 bc ce 78 59 bc
       -0.06464992 -0.05196063 -0.014125201 -0.013273431
0001f0 53 6b 51 3d 33 d3 17 bc bd 1e 93 bd cd 0f fb 3c
       0.051127743 -0.009266662 -0.07183597 0.030647183
000200 26 08 68 3d 1e f4 f9 3c 89 05 ac bc 6d a0 9c bd
       0.056648396 0.030511912 -0.020998733 -0.07647786
000210 24 89 28 3d 3b 45 9f bd 38 ca 2b 3c ce b0 9f 3d
       0.041146412 -0.077768765 0.010485224 0.07797395
000220 fa 9b b2 3d 2f ef 0c bc 0c 5f 90 3c 7b 1c 0e 3d
       0.087211564 -0.008601948 0.017623447 0.03469513
000230 a0 32 af 3d 1c eb 96 bc 4e d9 d3 bc 4c 10 91 bd
       0.08554578 -0.018422656 -0.025860455 -0.070831865
000240 33 46 85 3d 0c 5f 91 bc 23 66 8b 3d f1 2d be bc
       0.0650753 -0.017745517 0.068065904 -0.023215266
000250 80 b3 a0 bd c3 eb 71 bd 8e f1 fe bc a8 e1 9e 3b
       -0.07846737 -0.05906273 -0.031121042 0.0048486777
000260 7c 02 44 bd 51 00 2c bd 62 ae 1e bd 1c fb ab bc
       -0.04785393 -0.04199249 -0.038740523 -0.020993762
000270 4b 77 0d bd 09 a8 b3 bd fe dc b6 bd ad fa 2f bd
       -0.034537595 -0.087722845 -0.0892887 -0.042963672
000280 2f 64 0e 3d d5 e3 82 bc 8a ce d8 bb 02 d7 97 bb
       0.03476351 -0.01597778 -0.0066164182 -0.004633785
000290 ac c3 24 3d 6b 99 56 3d e8 d6 90 bd 11 5f 4c bd
       0.04022567 0.052392405 -0.0707224 -0.04989535
0002a0 d4 c5 8c 3d 28 a6 94 bd 21 ef 88 3c c9 6f 52 3d
       0.0687367 -0.07258254 0.016715588 0.051376138
0002b0 da 59 1e bc f4 3f 5d bd bc fb de ba 24 31 0a 3c
       -0.009664977 -0.05401607 -0.0017012279 0.008434568
0002c0 23 62 9b 3d 90 26 31 bd 39 2d 89 3b 13 ee 55 bd
       0.075870775 -0.043249667 0.004186299 -0.052229
0002d0 e1 d8 79 3d e8 da 67 3c 2d 02 79 3d b1 22 35 bd
       0.060997847 0.014151312 0.06079309 -0.044222537
0002e0 b0 85 ab bd 8c 20 8a 3d f6 18 b8 3d b7 33 78 bc
       -0.08375108 0.06744489 0.08989136 -0.0151490485
0002f0 26 db 77 bd 5d 92 a4 3d 84 94 30 3c 5b 3e 8a 3d
       -0.06051173 0.08035729 0.010777596 0.067501746
000300 d0 44 6a 3c bc 2a 32 3d b6 bc 22 3d 03 b4 7e bd
       0.014298633 0.043497786 0.03973075 -0.06218339
000310 a9 b0 5f 3d 53 9a 9d 3c b4 45 11 3d 8c 51 69 3d
       0.054611836 0.019238627 0.035466865 0.056962535
000320 9a 0a 38 bd fa 44 e7 3a 2a 60 ef bc c7 21 0f bd
       -0.044931985 0.0017644458 -0.02922066 -0.034944322
000330 86 c4 62 3d 54 94 46 3d 35 f3 96 bc 07 09 65 bd
       0.0553632 0.0484813 -0.018426517 -0.055916812
000340 4a 6b 9e bd b4 68 25 bb 9e 4c 17 3d 07 dd 25 bd
       -0.077353075 -0.002523941 0.036938302 -0.04049399
000350 4f eb 6c 3d f6 33 2c 3c 26 d6 b5 bd 21 ec 5b bd
       0.057841595 0.010510435 -0.08878736 -0.053691987
000360 5b de 05 3d 93 69 91 bd 83 86 bd bb d3 08 1e bd
       0.032682758 -0.07100215 -0.0057838573 -0.038582634
000370 63 97 44 bd 74 59 22 bd f1 3d 0d 3d 09 49 8d 3d
       -0.047995936 -0.03963609 0.0344829 0.06898696
000380 98 03 88 bc cf 27 9b 3d b6 47 17 bd 46 d2 7f 3d
       -0.016603276 0.07575952 -0.036933623 0.06245639
000390 72 a9 8c 3d ff 6f 3d 3c e3 19 91 bd 62 17 a9 3d
       0.06868257 0.0115623465 -0.070850156 0.08256413
0003a0 7c 82 10 3d 98 a1 46 b7 44 40 ab bb 8a e4 5a bd
       0.03528069 -1.1839344e-05 -0.005226167 -0.053440608
0003b0 49 77 bc bc f6 cf 6d 3d 9b 5b b9 3c 3a b7 45 3d
       -0.023006098 0.058059655 0.022626689 0.04827044
0003c0 94 82 aa bd 1c 80 9b 3d ae 87 ec bc 05 d4 8e 3d
       -0.08325687 0.07592794 -0.02887329 0.06974033
0003d0 2d 0c 64 3d d2 0f 83 bd bd d9 33 3c 0f 39 92 3c
       0.055675674 -0.06399502 0.010977206 0.017849473
0003e0 24 94 bd 3c 43 33 af bd 28 a0 75 3d 54 3c 60 bd
       0.023141928 -0.08554699 0.05996719 -0.054745033
0003f0 8d 4f 58 3c e0 39 48 3c 47 7a 9b bd ae 14 94 3d
       0.01320256 0.01222083 -0.07591682 0.07230507

actor.6.bias f4 [23]
000000 2a 0c a1 3d cc 46 2c bd 70 c0 8c bd c8 1d 0b 3d
       0.07863648 -0.042059705 -0.06872642 0.03396395
000010 3d 27 bd 3d 3e 5f 0a bd 55 db e0 3b 1f 69 72 3d
       0.09236 -0.033782236 0.006862084 0.059182283
000020 5c 6f a2 3d be 70 1a 3d 06 c1 fb bc 5b dc 88 3d
       0.07931396 0.037705176 -0.03073169 0.066826545
000030 96 2f 3b bd d4 53 00 bd 1d 06 14 3d 13 32 3f 3d
       -0.04569968 -0.031329945 0.036138643 0.046678614
000040 e2 27 36 ba bd 0f 0f bd b6 f7 ce 3c 71 0b 3f bc
       -0.0006948692 -0.03492712 0.025264602 -0.011660443
000050 f7 79 a6 bd bc 33 c3 3c f1 8c ab 3d
       -0.08128732 0.02382838 0.08376492
